cores/AE.pt (torch, 18312 bytes, 6 tensors)

fc1.weight f4 [39, 77]
0	0x3e818dc0	0.2530346
1	0xbe1697e9	-0.14706387
2	0xbe18a97f	-0.14908408
3	0x3e2437f5	0.16036971
4	0x3ec53b66	0.3852188
5	0xbf86e928	-1.0539904
6	0xbec05d46	-0.37571162
7	0xbfb6b281	-1.4273225
8	0x3eaa8c03	0.33309945
9	0xbceef2ca	-0.029168505
10	0xbec02eda	-0.37535745
11	0xbea62d98	-0.3245666
12	0xbe35ee5c	-0.17766708
13	0xbe523be7	-0.20530663
14	0x3e8901d2	0.267592
15	0x3e5c93e2	0.21540788
16	0xbf9c0969	-1.2190372
17	0x3ed69ccd	0.41916505
18	0x3ec492ab	0.3839315
19	0xbfb16fbf	-1.3862227
20	0xbe4da9dd	-0.20084329
21	0x3f492ef3	0.78587264
22	0xbe6fd583	-0.23421292
23	0x3f21d02c	0.6320827
24	0x3f8e90dd	1.1137959
25	0x3e185e72	0.14879778
26	0xbf175cc5	-0.5912593
27	0x3d187cdc	0.03722845
28	0x3e992913	0.2991415
29	0xbdce6895	-0.10078541
30	0x3de2da63	0.1107681
31	0xbd9b3e44	-0.075802356
32	0xbd9934ea	-0.07480796
33	0xbc3a2aa0	-0.011362702
34	0x3f524cb7	0.8214831
35	0x3e9afc43	0.30270585
36	0xbfa024aa	-1.2511189
37	0x3eaaf8f1	0.33393052
38	0xbd058989	-0.032601867
39	0xbebb8fa2	-0.3663302
40	0x3f514185	0.817406
41	0xbf015fe0	-0.5053692
42	0x3f2c9360	0.67412376
43	0xbdd1ce80	-0.10244465
44	0x3eb8790c	0.3602985
45	0x3f100c9f	0.5626926
46	0xbe654c7a	-0.22392455
47	0xbf05c216	-0.52249277
48	0x3e41acdf	0.18913601
49	0xbe29036e	-0.16505215
50	0x3ea9ed61	0.33188918
51	0xbebc2a00	-0.36750793
52	0x3f87f12a	1.0620472
53	0x3f0fadb0	0.561244
54	0xbe691a48	-0.22763932
55	0xbdc6e450	-0.09711516
56	0x3bf20700	0.0073860884
57	0x3e1fb33a	0.15595713
58	0xbc21a2f0	-0.0098655075
59	0xbe1e4922	-0.15457585
60	0x3c77ca80	0.015123963
61	0xbe10c70f	-0.14138435
62	0x3ecd8e99	0.40147856
63	0x3e8b0bba	0.27157384
64	0xbfabdb5e	-1.342632
65	0x3d8130ea	0.06308158
66	0xbf32d9d3	-0.69863623
67	0xbecd1c79	-0.40060785
68	0x3df824b2	0.12116374
69	0xbe33f272	-0.17572954
70	0x3f39e946	0.7262157
71	0xbdc66fb2	-0.09689273
72	0x3f57f9b5	0.843654
73	0x3e2fb5bd	0.17159171
74	0xbf693e39	-0.9111057
75	0x3d5d54cb	0.054035943
76	0x3ec37887	0.38177893
77	0x3de38922	0.111101404
78	0xbe341799	-0.17587127
79	0xbf936db0	-1.1517849
80	0x3d4248d8	0.04743275
81	0x3f679579	0.9046245
82	0xbf700361	-0.93755156
83	0xbef62003	-0.48071298
84	0x3d187264	0.037218466
85	0x3e9d161f	0.3068094
86	0xbda02aa1	-0.07820631
87	0xbe85c658	-0.26127887
88	0x3f08bb7e	0.5341109
89	0x3d0be5e1	0.034154776
90	0xbe19d733	-0.15023498
91	0x3f2562a9	0.6460367
92	0xbd7064e6	-0.058689974
93	0xbede7e8f	-0.43455932
94	0xbf8ca181	-1.0986787
95	0xbea3f7c8	-0.3202498
96	0x3e85edd3	0.26158008
97	0xbc118c25	-0.008883511
98	0x3f4f7edd	0.81052953
99	0x3ef5b89c	0.47992408
100	0x3f665eaf	0.89988226
101	0x3e23e6e5	0.16006048
102	0x3e68a17e	0.22717854
103	0xbf3d60f6	-0.73976076
104	0xbed38b2f	-0.41317126
105	0x3c1634f8	0.009167902
106	0x3de76e13	0.11300292
107	0x3f3700bb	0.7148549
108	0xbd8ffc56	-0.07030551
109	0x3dbb7444	0.09153035
110	0xbdf15998	-0.11784667
111	0xbf04fec1	-0.51951224
112	0x3f160509	0.58601433
113	0x3e8d347c	0.27579105
114	0xbf1a958f	-0.6038446
115	0x3f102c5b	0.5631768
116	0xbeb50eef	-0.35362956
117	0x3d3dd8e8	0.046349436
118	0xbe0c8495	-0.13722451
119	0xbf088d4f	-0.5334062
120	0x3ea8c445	0.32962242
121	0x3f30d7af	0.6907911
122	0x3e1da008	0.15393078
123	0x3de1d893	0.110276364
124	0xbdc27141	-0.09494258
125	0xbbd3e718	-0.0064667575
126	0x3d9f4458	0.077767074
127	0x3e9f991d	0.31171504
128	0x3d0ba5cb	0.03409366
129	0xbb3edd2c	-0.0029123528
130	0x3eff01c3	0.49806032
131	0xbea0fbe8	-0.3144219
132	0xbe65f6ad	-0.2245738
133	0xbe667052	-0.22503784
134	0x3e68c058	0.22729623
135	0xbe36caf2	-0.17850855
136	0xbde0fcd0	-0.1098572
137	0x3d3440c0	0.044007063
138	0xbf6ae872	-0.91760933
139	0x3f339fcd	0.7016571
140	0x3e3cbea9	0.18432106
141	0xbf32ebac	-0.69890857
142	0xbf00cfaf	-0.503169
143	0x3f0b21bd	0.54348356
144	0x3ffb371e	1.9626195
145	0x3ec561d6	0.38551205
146	0x3d375bac	0.04476516
147	0x3f312abe	0.69205844
148	0xbf10e960	-0.566061
149	0x3f083f46	0.5322155
150	0x3bdc8c18	0.0067305677
151	0xbd0a2756	-0.03372892
152	0xbeea744f	-0.4579186
153	0x3dca6d61	0.098841436
154	0xbf042fe0	-0.5163555
155	0x3add5ac1	0.0016888009
156	0x3f6ecf3a	0.9328495
157	0x3f50fc4d	0.8163498
158	0x3ec0f817	0.37689278
159	0x3fbcf19e	1.4761236
160	0x3d033d3c	0.03204082
161	0x3f995bd5	1.198115
162	0x3d7ed78e	0.062217288
163	0xbe1a12d2	-0.15046242
164	0xbe37d7e1	-0.17953445
165	0xbc5448be	-0.012956796
166	0xbb1ce4d2	-0.0023940098
167	0x3e9f1193	0.31068096
168	0x3f8a46bf	1.080284
169	0xbe34758f	-0.1762297
170	0xbf7fda31	-0.9994231
171	0xbe515e21	-0.20446064
172	0xbe6bdf2c	-0.23034352
173	0xbe8db148	-0.27674317
174	0x3ebdd36d	0.37075368
175	0x3f4cd92b	0.8001887
176	0xbdc2dcc7	-0.09514766
177	0xbf09e1bf	-0.53860086
178	0x3f4ad67d	0.79233533
179	0x3f28c236	0.6592134
180	0x3e8ef250	0.27919245
181	0xbf04e01e	-0.51904476
182	0x3f8692f8	1.0513601
183	0x3f9904bc	1.195457
184	0x3eaa5cb4	0.33273852
185	0xbcaf0f18	-0.021369502
186	0x3dbd2340	0.09235239
187	0xbe2f1f85	-0.17101867
188	0x3e19fdad	0.15038176
189	0x3ea7670e	0.32695812
190	0x400f7f79	2.2421553
191	0x3e9ca8b5	0.30597463
192	0x3c7e6469	0.015526869
193	0x3f3735c5	0.7156642
194	0xbe5c0bf1	-0.2148893
195	0xbeeb4d09	-0.4595721
196	0x3fb6b390	1.4273548
197	0x3fa60996	1.2971675
198	0x3dd00c07	0.10158544
199	0x3c9df1cd	0.019280339
200	0xbbb8c2dc	-0.0056384634
201	0x3e23441c	0.1594395
202	0x3ea70246	0.32618922
203	0xbe4a13d8	-0.19734132
204	0x3cde2fad	0.027122343
205	0xbe926852	-0.28595215
206	0xbedb1674	-0.42790568
207	0x3cc14412	0.023592029
208	0xbe983402	-0.2972718
209	0xbcb6df48	-0.022323266
210	0xbcabb8e8	-0.020962194
211	0xbe4e9409	-0.20173658
212	0xbd67f0c4	-0.056626096
213	0x3e19cd9a	0.15019837
214	0xbe0c07bd	-0.13674827
215	0x3f6020f8	0.87550306
216	0x3ee4ac61	0.44662765
217	0x3f50fa4b	0.81631917
218	0x3fda7ba6	1.7068985
219	0x3cbcbe28	0.023039892
220	0x3fa9229e	1.3213689
221	0x400b01bb	2.1719806
222	0x3e656f9e	0.2240586
223	0xbf7d68ad	-0.9898785
224	0xbf111bec	-0.5668323
225	0x3e8e5f0b	0.27806887
226	0xbf1d6fd4	-0.6149876
227	0x3eccc26b	0.3999208
228	0x3f3afd77	0.73043007
229	0x3f3dcf02	0.74143994
230	0x3e8b4f6a	0.27209026
231	0xbed4ca98	-0.41560817
232	0xbcd26bec	-0.025686227
233	0x3f139e67	0.5766358
234	0xbd91e71c	-0.07124159
235	0x3e1ad3ee	0.15119907
236	0x3ded2f62	0.11581303
237	0x3ec06c2b	0.37582526
238	0xbe6d412c	-0.23169392
239	0xbdba3d5e	-0.09093736
240	0xbe079851	-0.13241698
241	0xbdb7c2c1	-0.08972693
242	0xbe97173f	-0.29509923
243	0x3e80cf4b	0.25158152
244	0xbe9970da	-0.2996891
245	0x3ee01497	0.4376571
246	0x3dbdbd7e	0.092646584
247	0x3d6e3520	0.058156133
248	0xbeadb771	-0.33929017
249	0x3e059272	0.13044146
250	0x3ebed6ac	0.37273157
251	0xbdd9bc25	-0.10631589
252	0x3e43be9e	0.19115683
253	0xbbda67b6	-0.0066651953
254	0x3e97e437	0.29666302
255	0x3ee1e2bb	0.44118294

fc1.bias f4 [39]
0	0x3e57fba6	0.2109209
1	0xbe3440f6	-0.17602906
2	0xbd35086a	-0.044197477
3	0x3e29d0b0	0.16583514
4	0x3c684f25	0.014179026
5	0xbf5e6841	-0.8687783
6	0xbf6b14ef	-0.9182882
7	0x3d0a8db3	0.03382654
8	0x3daee735	0.08540193
9	0x3e7576ce	0.23971102
10	0x3d4b6fe5	0.049667258
11	0xbe2a5aee	-0.1663625
12	0xbde9f8ff	-0.11424445
13	0xbeef9262	-0.4679137
14	0xbe7ab4d1	-0.24483038
15	0xbeeb9467	-0.4601166
16	0xbea3e20c	-0.32008398
17	0xbc81dd7c	-0.015852682
18	0xbef5fd70	-0.4804492
19	0xbee98a76	-0.4561345
20	0x3f9aa728	1.2082262
21	0x3bb04643	0.0053794696
22	0xbd428b67	-0.047496226
23	0xbe9b04b4	-0.30277026
24	0x3e29a330	0.16566157
25	0x3e16e7c0	0.14736843
26	0xbd8483a6	-0.064704224
27	0xbe81a644	-0.25322163
28	0xbe097cd1	-0.1342652
29	0xc023cc2d	-2.559337
30	0x3eb0130a	0.34389526
31	0xbea616a8	-0.3243916
32	0xbee1fbfa	-0.44137555
33	0x3e0a79b1	0.13522984
34	0xbd88671b	-0.06660291
35	0xbd6d37b4	-0.05791445
36	0xbdca745d	-0.09885476
37	0x3dd00f7a	0.10159202
38	0xbe93cf0f	-0.2886891

fc2.weight f4 [19, 39]
0	0x3c96487c	0.01834511
1	0x3dd87ebf	0.1057105
2	0xbe22fd41	-0.15916921
3	0x3e02f697	0.12789379
4	0x3f1f1396	0.6213926
5	0x3e71b638	0.23604667
6	0xbea068ac	-0.31329858
7	0xbcbc3ff9	-0.022979723
8	0xbc7dc367	-0.015488482
9	0x3c11c82f	0.008897825
10	0xbf46a6de	-0.7759837
11	0x3d713ef1	0.058897916
12	0xbe3c4d02	-0.18388751
13	0x3ec09734	0.3761536
14	0x3ea12726	0.3147518
15	0x3e0564e1	0.13026763
16	0xbe0bf1f3	-0.13666515
17	0x3e7c8e12	0.2466357
18	0xbbd129c7	-0.006383154
19	0x3cdb8484	0.026796587
20	0x3eb48948	0.35260987
21	0x3d32dbb5	0.04366656
22	0xbc1b5fdf	-0.009483307
23	0xbe587063	-0.21136622
24	0xbd8fef32	-0.07028045
25	0xbc98ffac	-0.018676601
26	0xbd1d0244	-0.03833224
27	0x3da73a01	0.0816536
28	0xbc876f3c	-0.016532533
29	0xbf4ca885	-0.7994464
30	0x3e4e70db	0.20160238
31	0x3d703837	0.05864736
32	0xbc9cdf79	-0.019149529
33	0xbd80aeb5	-0.06283323
34	0xbd526cc7	-0.05137327
35	0x3bec49fd	0.0072109685
36	0xbdcb6e5f	-0.09933161
37	0xbe3592b7	-0.17731749
38	0x3ce2dec7	0.02769412
39	0x3d369648	0.044576913
40	0x3d8dc3df	0.06922125
41	0x3e444efe	0.19170758
42	0xbc3cb36b	-0.011517386
43	0xbe59034e	-0.21192667
44	0x3e44185f	0.19149922
45	0x3ce03258	0.027367756
46	0x3eb85f84	0.36010373
47	0x3ee797f6	0.45233124
48	0xbd76259f	-0.060094472
49	0x3f119ede	0.5688304
50	0xbdb5701f	-0.08859276
51	0x3eeac5d8	0.45854068
52	0xbf4f978c	-0.8109062
53	0xbe2fa530	-0.17152858
54	0xbe6520b8	-0.22375762
55	0xbd9854cf	-0.07438051
56	0x3ea114c1	0.31461146
57	0xbe420163	-0.18945841
58	0xbdd6fa1b	-0.104969226
59	0x3f09cc1d	0.5382708
60	0x3d86510a	0.06558426
61	0xbe260ece	-0.16216585
62	0x3ae05036	0.0017113748
63	0x3ef0abe9	0.47006157
64	0x3caa275d	0.020770723
65	0xbd8c7b5b	-0.06859466
66	0xbdd94816	-0.106094524
67	0xbe2db999	-0.16965331
68	0xbe875211	-0.264298
69	0x3d08b5dc	0.03337656
70	0xbe3e65e6	-0.18593559
71	0xbea72733	-0.32647094
72	0xbcba891c	-0.022770457
73	0x3d7613d4	0.060077503
74	0xbda9712f	-0.08273541
75	0xbda205db	-0.07911273
76	0x3fa1c8d4	1.2639413
77	0xbda0be14	-0.078487545
78	0x3e9e83dd	0.3095998
79	0xbe09fbf2	-0.13475016
80	0x3e575147	0.21027099
81	0x3e509a73	0.20371418
82	0x3d88fde1	0.066890486
83	0xbe218b2f	-0.1577575
84	0xbd46ae3d	-0.04850601
85	0xbe33a68e	-0.17544004
86	0xbdc6c8bd	-0.097062565
87	0x3c8336c8	0.016017333
88	0x3e2d7c8a	0.16942039
89	0xbe97ec44	-0.29672444
90	0x3b8828d6	0.0041552586
91	0xbd8aa8d4	-0.06770483
92	0xbc50b302	-0.012737991
93	0xbce52bb5	-0.027974943
94	0xbe0eaf68	-0.139341
95	0x3c0b5b38	0.008505635
96	0x3e88118e	0.26575893
97	0x3d370904	0.044686332
98	0xbd656ab9	-0.05600998
99	0x3d908f11	0.07058538
100	0xbe42ed5a	-0.19035855
101	0x3e414291	0.1887305
102	0x3d3217a8	0.04347959
103	0x3e1a82a3	0.15088896
104	0x3e5ab0c2	0.2135649
105	0x3da462fe	0.08026694
106	0xbbb7ce7d	-0.005609332
107	0xbde03a69	-0.10948641
108	0xbe4c5e87	-0.19957934
109	0x3bf173db	0.0073685474
110	0x3de86ee2	0.11349274
111	0x3b06f7b6	0.0020594425
112	0x3dd01242	0.101597324
113	0x3e30653e	0.17226121
114	0xbcbdf370	-0.02318737
115	0xbbf9f176	-0.0076276613
116	0x3b240d45	0.0025032323
117	0xbeccb3f7	-0.39981052
118	0xbe6c63b4	-0.23084909
119	0xbe88b267	-0.2669861
120	0xbc3ca0be	-0.011512933
121	0xbed27342	-0.4110356
122	0x3e67bd9a	0.22630921
123	0x3f04f112	0.51930344
124	0xbcd1f59f	-0.025629817
125	0xbe2d1f11	-0.16906382
126	0xbd220663	-0.039556872
127	0x3e68a204	0.22718054
128	0xbe2374ee	-0.15962574
129	0x3e7c3a0a	0.24631515
130	0xbf4e0249	-0.80472237
131	0xbe8b8b30	-0.2725463
132	0x3ed1f8ef	0.41010234
133	0x3d47b666	0.048757933
134	0xbf0d92be	-0.55302036
135	0xbdc447fd	-0.09584043
136	0x3e16a0a0	0.14709711
137	0xbec7d1e5	-0.39027324
138	0xba291978	-0.00064506335
139	0x3ec06d10	0.37583208
140	0x3e115d5f	0.14195774
141	0x3e8f48b5	0.2798516
142	0xbccd02ad	-0.02502569
143	0x3f2926a5	0.6607459
144	0xbd2572bc	-0.040392622
145	0xbd9ce38a	-0.07660587
146	0x3e627c97	0.2211784
147	0xbecfa220	-0.4055338
148	0x3dd711e5	0.1050146
149	0x3c951116	0.018196624
150	0xbe1b068f	-0.1513922
151	0x3e85f2e5	0.26161876
152	0x3d3a267b	0.045446854
153	0x3eb410b5	0.35168996
154	0xbd04c450	-0.03241378
155	0x3ddb7b22	0.10716845
156	0xbca9a735	-0.020709613
157	0x3e054bbc	0.13017172
158	0xbdb65852	-0.089035645
159	0x3d9746c9	0.07386548
160	0x3b8b858a	0.0042578625
161	0x3d9bc067	0.07605057
162	0xbe93188a	-0.2872966
163	0xbe38a9c4	-0.1803351
164	0x3e0e05f4	0.13869458
165	0x3cf0eea4	0.029410668
166	0x3e3e54fd	0.18587108
167	0xbe35472c	-0.17702931
168	0xbacccfaa	-0.0015625854
169	0xbf25e920	-0.64808846
170	0x3c29d07e	0.01036465
171	0x3dfab63f	0.12241792
172	0x3bdf62b6	0.006817187
173	0xbda1fd2e	-0.07909618
174	0xbc9e7f1d	-0.019347722
175	0x3da8a7ac	0.08235106
176	0x3f4236cc	0.75864863
177	0x3d207310	0.039172232
178	0xbe07b901	-0.13254167
179	0x3ceb5094	0.028724946
180	0x3e02a354	0.12757617
181	0x3d4d6ae6	0.050150774
182	0x3e278380	0.16358757
183	0x3e4b8399	0.1987442
184	0x3e67b591	0.22627856
185	0xbf2c0f57	-0.67210907
186	0x3e50f049	0.20404162
187	0xbe6a99c2	-0.22910216
188	0xbdb47a00	-0.08812332
189	0x3ea5e6a1	0.32402518
190	0x3e35e7b3	0.17764167
191	0x3c4fe816	0.012689611
192	0xbe7f3211	-0.24921443
193	0x3f4cc9e9	0.7999559
194	0x3e324a12	0.17411068
195	0xbd254f28	-0.040358692
196	0x3dafb5fc	0.08579633
197	0x3e074dd7	0.13213287
198	0xbdc0b2ed	-0.094091274
199	0x3e3785df	0.17922162
200	0xbe59b9ee	-0.21262333
201	0x3eb85b75	0.36007276
202	0x3e0c0ba9	0.13676323
203	0x3dfa0702	0.12208368
204	0xbda04575	-0.07825748
205	0x3c51bb57	0.012801013
206	0xbe2b22ed	-0.16712542
207	0x3e859062	0.26086718
208	0x3d90b1d5	0.07065169
209	0x3e0294f2	0.1275213
210	0x3e6e48e4	0.23269993
211	0x3d3a9d80	0.04556036
212	0x3e93cbac	0.28866327
213	0x3ec4f914	0.38471282
214	0x3eb9e574	0.3630787
215	0x3d53d291	0.051714484
216	0x3e264340	0.16236591
217	0x3e2c8389	0.16847052
218	0xbe4e7ce2	-0.20164827
219	0x3eb1a4ba	0.3469599
220	0xbe877479	-0.2645605
221	0xbd8e6d44	-0.069544345
222	0x3e6e2946	0.23257932
223	0x3e42da3e	0.19028565
224	0xbe539846	-0.20663556
225	0x3e274ba4	0.16337448
226	0x3e86f75b	0.26360592
227	0x3b2ea484	0.0026648352
228	0xbe6c2d71	-0.2306421
229	0xbd852807	-0.06501775
230	0xbeca02ba	-0.39455205
231	0x3db84fd8	0.08999604
232	0xbe833562	-0.25626665
233	0xbc50a5c7	-0.012734837
234	0xbed71bd5	-0.42013422
235	0xbe95d3fa	-0.29263288
236	0xbd95eb74	-0.073203
237	0x3dbd8143	0.0925317
238	0x3da7a6dc	0.08186123
239	0x3f23c36f	0.63970083
240	0x3d9a23a3	0.075263284
241	0xbeca498c	-0.39509237
242	0xbc95472f	-0.01822242
243	0x3e061c19	0.13096656
244	0xbe4553a5	-0.19270189
245	0xbf8c100a	-1.0942395
246	0xbebd24d2	-0.36942154
247	0xbe018dc6	-0.12651739
248	0x3eb63d3a	0.35593587
249	0x3e2587f7	0.16165148
250	0x3e404e72	0.18779925
251	0x3e8f3e30	0.27977133
252	0xbe3aed73	-0.18254642
253	0x3daef2e8	0.085424244
254	0x3caa88e6	0.020817231
255	0x3d4c0c10	0.04981619

fc2.bias f4 [19]
0	0x3f4f37b5	0.8094438
1	0x3ebf8474	0.3740574
2	0x3dcf0143	0.101076625
3	0xbf0cf355	-0.55058795
4	0x3f55de9e	0.8354281
5	0x3abe71ee	0.0014529803
6	0xbe29398b	-0.16525857
7	0x3f938d7d	1.1527554
8	0xbef4b5de	-0.47795004
9	0x3f0878ec	0.5330951
10	0xbcf84180	-0.03030467
11	0xbd5d6b18	-0.05405721
12	0xbedaa896	-0.42706746
13	0x3ea0765a	0.31340295
14	0xbf059125	-0.521746
15	0x3ea1452a	0.3149808
16	0x3f887f2d	1.0663811
17	0x3e9e6834	0.30938876
18	0xbe9c6a85	-0.30550018

fc3.weight f4 [9, 19]
0	0x3e384e52	0.17998627
1	0x3e88b816	0.26702946
2	0xbe9c471c	-0.30523002
3	0x3e4faff6	0.20281968
4	0x3e20a930	0.1568954
5	0xbe33075b	-0.17483275
6	0x3e61dd1d	0.22057004
7	0x3dfd873a	0.12379308
8	0x3eabafb0	0.33532476
9	0xbeb5c3ea	-0.35501033
10	0xbc937589	-0.018000381
11	0xbe1d781f	-0.15377854
12	0x3f146de1	0.5798016
13	0x3f2a1824	0.66443086
14	0x3dd101dd	0.102054335
15	0xbeab2b6e	-0.33431572
16	0x3e80dc38	0.25168014
17	0x3eb399db	0.3507832
18	0x3ea28936	0.3174531
19	0xbe7116f7	-0.23543917
20	0x3ed5276c	0.4163164
21	0x3e032227	0.12805997
22	0x3e202125	0.15637644
23	0x3efe40f2	0.49658924
24	0x3d94e17b	0.072695695
25	0x3e807691	0.2509046
26	0xbe9ca2f3	-0.3059307
27	0xbea5428e	-0.3227734
28	0x3ea14d31	0.31504205
29	0xbba3c60c	-0.0049979743
30	0xbea85bf3	-0.32882652
31	0xbcf75e03	-0.030196195
32	0xbe92d630	-0.28679037
33	0x3e1c4478	0.15260494
34	0xbdab36cb	-0.0836006
35	0xbe74b0b5	-0.23895533
36	0xbe20e41a	-0.15712014
37	0x3e07eb54	0.13273364
38	0xbe34cb8a	-0.17655769
39	0xbcd8565e	-0.02640837
40	0x3d3a1ac5	0.045435686
41	0x3e7ab58d	0.24483319
42	0xbdea6595	-0.114451565
43	0xbe073c26	-0.13206539
44	0x3dfa4902	0.122209564
45	0x3ddaee64	0.10690001
46	0x3e8256dc	0.25456893
47	0x3ca82fa2	0.020530526
48	0xbd99de82	-0.07513143
49	0x3e64a898	0.22329938
50	0x3c6b00b6	0.014343431
51	0x3ea425e9	0.32060173
52	0x3f1c18c9	0.6097532
53	0x3ef13bbe	0.47115892
54	0xbcfb4ca0	-0.030676186
55	0xbe38a69c	-0.18032306
56	0xbd45130c	-0.048113868
57	0x3d08b7ac	0.03337829
58	0x3e244488	0.16041768
59	0x3d0be998	0.03415832
60	0x3e819888	0.25311685
61	0x3eb71065	0.35754696
62	0x3e3f34c2	0.1867247
63	0xbe1eca3f	-0.15506838
64	0x3f04e2e9	0.5190874
65	0x3df06591	0.11738122
66	0x3e337361	0.17524482
67	0xbe951c88	-0.2912333
68	0x3e76a512	0.24086407
69	0xbd7aa174	-0.06118913
70	0xbe993eee	-0.29930824
71	0xbe4842ec	-0.19556779
72	0x3db52e9e	0.08846782
73	0x3ea4bafa	0.32173902
74	0xbe893180	-0.26795578
75	0x3c8daf15	0.0172954
76	0xbebe1a81	-0.37129596
77	0xbd9e72d2	-0.07736744
78	0xbe9f5ffc	-0.31127918
79	0x3ea6f37f	0.32607648
80	0xbe311907	-0.17294703
81	0xbe083691	-0.13302065
82	0xbec5892e	-0.38581222
83	0x3e0a5c6b	0.13511817
84	0xbecb5823	-0.3971568
85	0xbe97f560	-0.29679394
86	0xbdf36bd4	-0.11885801
87	0x3e027a98	0.12742078
88	0x3eb3c35d	0.35109988
89	0x3ee71e6a	0.45140392
90	0xbe2c1aba	-0.1680707
91	0x3c8804d6	0.016603868
92	0xbc0a9209	-0.008457669
93	0x3d901f3f	0.0703721
94	0xbe5257f3	-0.20541362
95	0x3e85b9f0	0.26118422
96	0x3e857b95	0.26070848
97	0xbe084d86	-0.13310823
98	0xbe836658	-0.2566402
99	0x3ea45bfa	0.32101423
100	0xbf01daf2	-0.5072471
101	0xbdabd999	-0.08391113
102	0xbd5d2464	-0.053989783
103	0x3db6c204	0.08923724
104	0xbce0dc8f	-0.02744892
105	0xbbdf6b3e	-0.006818204
106	0x3ef0b90a	0.47016174
107	0xbe45df0d	-0.19323368
108	0xbf0714d7	-0.52766174
109	0x3f05068b	0.5196311
110	0xbe67fa5e	-0.22654101
111	0x3e1e7a36	0.15476307
112	0x3e65ff3f	0.2246065
113	0xbe54e54b	-0.20790593
114	0x3e4277d9	0.18991031
115	0xbe6ae46a	-0.22938696
116	0x3df773ab	0.12082609
117	0xbe884914	-0.26618254
118	0xbe994dbc	-0.2994212
119	0x3d77036e	0.060306005
120	0x3decf3de	0.115699515
121	0x3ec11f0f	0.37719008
122	0xbeff873c	-0.49907863
123	0xbd082170	-0.033235013
124	0xbdbe17a6	-0.09281854
125	0x3bf29522	0.007403032
126	0x3e5107ba	0.20413104
127	0xbb8102ff	-0.0039371247
128	0x3f1d0f48	0.6135144
129	0xbded06e4	-0.1157358
130	0x3de8ca5d	0.11366723
131	0xbee8b29f	-0.45448777
132	0x3e2afc37	0.16697775
133	0xbd47e996	-0.04880675
134	0x3c5f28d8	0.013620578
135	0x3e27b756	0.16378531
136	0xbcff620b	-0.03117468
137	0xbe3ff902	-0.18747333
138	0x3db86897	0.09004324
139	0xbf1cdc19	-0.6127334
140	0xbe848cb3	-0.25888595
141	0x3ecb7cbe	0.39743608
142	0x3ecd5e92	0.40111214
143	0xbdefbbc8	-0.11705738
144	0xbed2f4b7	-0.41202328
145	0x3f08a66f	0.5337896
146	0x3e4c3c6c	0.19944924
147	0xbcca8e75	-0.024726132
148	0xbea47654	-0.32121527
149	0x3d28a94f	0.04117709
150	0xbf1d9f78	-0.61571455
151	0xbd401f94	-0.046905115
152	0xbe9e6ddd	-0.30943194
153	0xbec852cc	-0.3912567
154	0xbc7403d7	-0.014893494
155	0x3f13332e	0.5749997
156	0xbe2e823b	-0.17041866
157	0xbe15fe1b	-0.14647715
158	0x3e0a583b	0.1351022
159	0xbe487bdf	-0.19578503
160	0x3e2d32da	0.1691393
161	0xbd4d0490	-0.05005318
162	0xbd4dd539	-0.050252173
163	0xbd50355d	-0.05083214
164	0xbef0a525	-0.47000995
165	0xbf0aaa11	-0.5416575
166	0xbe0dd59b	-0.13851015
167	0xbe5900a9	-0.21191658
168	0x3ed93b54	0.42428076
169	0x3ecf343d	0.40469542
170	0x3e1108fa	0.1416358

fc3.bias f4 [9]
0	0x3d930c52	0.07180084
1	0x3e3bd32c	0.18342274
2	0x3f7f77bd	0.9979208
3	0xbf343440	-0.7039223
4	0x3e1d2391	0.15345599
5	0x3e4ffd12	0.20311382
6	0x3edc8afe	0.43074793
7	0x3ea8793d	0.32904997
8	0x3f19f597	0.60140365
