cores/AE_new.pt (torch, 18312 bytes, 6 tensors)

fc1.weight f4 [39, 77]
0.96764076 0.12248864 0.020904316 -1.0419033 -0.3477878 0.92346114 -0.05787862 0.20148137
0.18420471 -0.36730164 0.24365962 -0.099151485 0.38777947 -0.55125433 -0.7314902 0.22777174
1.0583317 -0.6390443 -0.13011229 0.17513303 -0.36817005 -0.17166266 0.16285905 -0.12792753
-0.88975954 -0.0007414236 -0.36204323 0.40555784 0.038592264 0.14594911 -0.0781686 0.07111326
-0.024616912 -0.07424179 0.7708104 -0.42277944 -0.24572635 -0.0003326746 -0.35834494 -0.63741463
0.23871513 0.4519813 -0.37603775 -0.052163422 0.09473005 -0.4321531 0.07059222 -0.018187081
-0.1858302 0.095176905 -0.45222867 0.16623034 0.3516423 -0.10621672 0.27069443 0.10545814
0.174795 0.10241881 -0.14391392 0.17382067 0.17751324 -0.070577405 -0.34111023 -0.6311623
1.0122423 0.20414619 0.3277174 2.3255596 -0.52640384 -0.20520875 -0.13752532 0.31609643
-0.13297024 0.48458037 -1.1910988 0.2123581 0.20918554 -0.0015802897 0.016817758 0.2332369
-0.401008 -0.31739938 0.18562558 -0.047664244 0.011653376 0.00931044 0.04355171 0.2061321
0.1532065 0.015947096 0.01948186 0.1968678 -0.049225733 0.42170918 -0.1609475 -0.08962074
-0.13588545 -0.09169121 0.078458376 -0.0030910028 0.065130204 -0.17861445 0.06605228 -0.20334007
0.029723184 -0.05538649 0.20160358 0.083544284 -0.12916361 -0.08988957 0.12127751 -0.26744226
0.5509699 -0.042425368 0.04072726 -0.007895231 -0.1029423 0.049654085 0.21124472 -0.16777243
-0.032143854 -0.10333745 -0.018255109 0.010352873 0.019298028 -0.004149438 0.2053301 -0.21935485
0.01787758 -0.10063168 0.034256235 -0.18637538 -0.019839197 -0.050842404 0.17484933 -0.086784735
0.115251124 -0.008364469 -0.13153721 0.110342994 -0.10500525 0.07485524 -0.017854596 -0.019821944
-0.3585732 -0.012014914 0.26677325 0.044472482 -0.30782074 0.6907988 -0.08085312 0.024027102
0.11012003 0.07901897 -0.02747158 -0.0759356 0.24128601 -0.837924 -0.1097509 0.5222567
-0.11788288 -0.20180656 0.45813742 -0.19844867 0.08273186 -0.10133045 0.14762212 0.26616707
0.037782367 0.12901387 -1.5421393 -0.1633827 0.06414585 1.009357 0.038323633 0.13948625
0.41484678 -0.03263219 0.5205945 0.08354819 0.20719095 0.11801481 -0.08754552 0.39198145
0.20358554 -0.12225118 0.15737358 -0.073810875 -0.2240688 -0.7100539 -0.056042217 0.012824303
0.1226186 -0.2994334 -0.13284576 -0.24108544 0.51801443 -0.033242922 -0.15351811 0.10943179
0.004907928 0.0045556813 0.008986408 0.047588736 0.1513159 0.09028625 -0.022767706 0.24168886
0.029517349 -0.05262281 -0.13027063 -0.11361039 -0.11896863 0.08903107 -0.11445093 0.19668369
0.16178818 -0.505811 0.4141712 -0.015307023 0.030693036 0.13369414 0.024487577 -0.5355675
0.5995847 0.031755652 -0.098911695 0.04854835 0.15378815 -0.4211647 0.3121874 -0.13660909
0.22241254 -0.40864176 -0.36188012 -0.16165216 -0.57943076 0.5317646 -1.8348097 -0.34965724
1.4043455 0.019158656 0.51154804 -0.4668359 1.113818 1.3942876 -0.022886844 2.3994386
-0.7308621 -1.9448953 -6.0340667 0.45836756 1.420401 0.3946207 -1.5233119 -0.1304999
00000000: 4eb7 773f 53db fa3d 873f ab3c 165d 85bf
00000010: 3e11 b2be f367 6c3f 2212 6dbd 2251 4e3e
00000020: 29a0 3c3e f60e bcbe e881 793e ef0f cbbd
00000030: 088b c63e 011f 0dbf f142 3bbf ff3c 693e
00000040: 6a77 873f 6898 23bf 283c 05be 1356 333e
00000050: c980 bcbe 56c8 2fbe 86c4 263e 6fff 02be
00000060: 48c7 63bf 185c 42ba bb5d b9be 47a5 cf3e
00000070: ec12 1e3d af73 153e dc16 a0bd d4a3 913d
00000080: 68a9 c9bc 140c 98bd d553 453f 8c76 d8be
00000090: b09f 7bbe d46a aeb9 fd78 b7be 9b2d 23bf
000000a0: bd71 743e 186a e73e 0588 c0be 50a9 55bd
000000b0: d401 c23d 2c43 ddbe a792 903d 13fd 94bc
000000c0: 464a 3ebe 1cec c23d 848a e7be 4938 2a3e
000000d0: 760a b43e 2788 d9bd 7698 8a3e 70fa d73d
000000e0: 76fd 323e f4c0 d13d 2c5e 13be 0cfe 313e
000000f0: 08c6 353e e38a 90bd 00a6 aebe da93 21bf
00000100: 2891 813f b30b 513e 93ca a73e f8d5 1440
00000110: 67c2 06bf 3e22 52be 70d3 0cbe 64d7 a13e
00000120: 5a29 08be eb1a f83e ed75 98bf 6774 593e
00000130: bc34 563e b921 cfba 65c5 893c a7d5 6e3e
00000140: ec50 cdbe 2c82 a2be a214 3e3e 953b 43bd
00000150: cded 3e3c d18a 183c 4763 323d 4b14 533e
00000160: 2ae2 1c3e 7ca3 823c 6c98 9f3c b697 493e
00000170: eca0 49bd 44ea d73e 6ccf 24be 148b b7bd
00000180: 8e25 0bbe 9ac8 bbbd c9ae a03d 6c92 4abb
00000190: fc62 853d b5e6 36be 6b46 873d 6138 50be
000001a0: 097e f33c f2dc 62bd 2b71 4e3e 4419 ab3d
000001b0: 7743 04be 0618 b8bd 5860 f83d 31ee 88be
000001c0: 5d0c 0d3f 39c6 2dbd a1d1 263d 005b 01bc
000001d0: 6ad3 d2bd 1562 4b3d 8950 583e 89cc 2bbe
000001e0: 46a9 03bd 96a2 d3bd bd8b 95bc 199f 293c
000001f0: e616 9e3c 02f8 87bb 0e42 523e 8f9e 60be
00000200: 0174 923c fb17 cebd 4450 0c3d 30d9 3ebe
00000210: d085 a2bc 2040 50bd b40b 333e 32bc b1bd
00000220: c808 ec3d 200b 09bc b1b1 06be 82fb e13d
00000230: fe0c d7bd b44d 993d cd43 92bc a161 a2bc
00000240: e896 b7be 34da 44bc 8196 883e c728 363d
00000250: ae9a 9dbe 31d8 303f 5296 a5bd 7cd4 c43c
00000260: 9c86 e13d b3d4 a13d 140c e1bc 2084 9bbd
00000270: ae13 773e 3082 56bf 14c5 e0bd 9db2 053f
00000280: 946c f1bd 61a6 4ebe fd90 ea3e 2136 4bbe
00000290: 526f a93d 5786 cfbd 412a 173e 0d47 883e
000002a0: afc1 1a3d 361c 043e d264 c5bf cb4d 27be
000002b0: e65e 833d 9c32 813f 3ef9 1c3d 7cd5 0e3e
000002c0: cc66 d43e 55a9 05bd ae45 053f 501b ab3d
000002d0: dd29 543e c0b1 f13d 114b b3bd cbb1 c83e
000002e0: ba78 503e d45e fabd 8a26 213e 282a 97bd
000002f0: 4b72 65be 18c6 35bf 868c 65bd 061d 523c
00000300: 761f fb3d 564f 99be b808 08be 1adf 76be
00000310: 989c 043f bb29 08bd da33 1dbe c61d e03d
00000320: afd2 a03b d347 953b ba3b 133c 68ec 423d
00000330: 8ef2 1a3e ffe7 b83d 5783 babc 497d 773e
00000340: 5ece f13c 048b 57bd aa65 05be 90ac e8bd
00000350: d3a5 f3bd ec55 b63d 4065 eabd 7367 493e
00000360: cdab 253e d47c 01bf 3f0e d43e 4fca 7abc
00000370: f66f fb3c 1ee7 083e 2c9a c83c f41a 09bf
00000380: 627e 193f 3712 023d 3792 cabd a2da 463d
00000390: a47a 1d3e e6a2 d7be 07d7 9f3e 41e3 0bbe
000003a0: 1dc0 633e 7e39 d1be 5a48 b9be 2588 25be
000003b0: 9355 14bf ba21 083f 0bdb eabf 4606 b3be
000003c0: 98c1 b33f 9df2 9c3c d0f4 023f 1d05 efbe
000003d0: 9791 8e3f 0478 b23f 317d bbbc 6790 1940
000003e0: c719 3bbf 54f2 f8bf 1317 c1c0 27af ea3e
000003f0: b3cf b53f b90b ca3e e2fb c2bf c4a1 05be

fc1.bias f4 [39]
-0.1069624 0.013645963 -0.075034626 0.060258478 -0.25743386 -0.39004853 -0.0021210676 -0.014225486
-0.68454087 -0.06643333 0.19468297 0.1302771 -0.045227967 0.099220306 0.57976794 -0.28888
-0.18822674 -1.568074 0.16566154 0.31320226 0.12728465 -0.033043586 0.40416372 0.013840872
-0.035295833 -0.04218639 0.29551655 -0.15791696 -0.42465845 -0.07986021 -0.2077193 0.26431754
-0.045894723 0.050717097 -0.8084756 0.05080368 0.16379781 -0.13229463 0.023938393
00000000: 1a0f dbbd 5193 5f3c c1ab 99bd 98d1 763d
00000010: 5fce 83be 71b4 c7be 9c01 0bbb 0312 69bc
00000020: 123e 2fbf 330e 88bd f95a 473e 5c67 053e
00000030: f640 39bd 0434 cb3d ac6b 143f 14e8 93be
00000040: 83be 40be a6b6 c8bf 2ea3 293e 0c5c a03e
00000050: e856 023e b658 07bd 8cee ce3e d3c4 623c
00000060: 5d92 10bd a3cb 2cbd f24d 973e fcb4 21be
00000070: d56c d9be c08d a3bd 5eb4 54be a154 873e
00000080: 1bfc 3bbd bbbc 4f3d 42f8 4ebf 8517 503d
00000090: 9dba 273e 3e78 07be 731a c43c

fc2.weight f4 [19, 39]
0.77467245 0.022736417 0.0149265705 -0.008417683 0.09990779 0.46649683 -0.0049054627 0.022929575
-0.0027269933 0.107174255 0.020483352 0.03432887 -0.0040384717 0.5076302 0.03890295 0.0231827
-0.042151313 0.037253972 0.06196605 0.11286277 -0.058403715 -0.002943521 0.07144008 0.011966776
-0.019107956 -0.0026591485 -0.31679866 -0.2139235 -0.13577455 -0.07703619 -0.21264547 -0.030251514
0.0014197358 -0.005742481 -0.08648183 -0.016672041 -0.06664852 -0.05096227 -0.08078786 -0.30791765
0.011500619 -0.0027322068 0.07205673 0.047412414 0.14030173 0.028539743 -0.009642443 -0.15453033
-0.015079932 0.06014659 -0.105036974 -0.024444934 0.41522154 -0.2856839 0.43788922 0.03480887
-0.22552314 -0.055838782 -0.1294224 -0.25974348 -0.01549517 0.02121489 0.0018884924 -0.000110251945
-0.012906227 0.19187516 0.103655845 -0.022335663 0.4367325 0.048924226 -0.1564541 -0.008784478
0.025348814 0.36080578 -0.045116678 0.6731676 0.08518406 -0.08064387 0.14585266 -0.009743368
-0.0022269972 -0.31956136 1.1008339 -0.23323335 0.034471586 -0.023878433 -1.1221179 0.38042775
0.009052646 0.35099697 -0.009178434 0.13479687 0.38442513 0.08004671 -0.57998127 -0.9700729
0.14030935 -0.13998531 0.65063584 -0.012401972 0.4200723 -0.0134592 0.0011238288 0.006460793
-0.16191053 0.30060065 1.0999454 0.67137563 0.1875837 0.025349371 -0.020815216 0.015244847
-0.16798632 -0.001168098 0.56940204 -0.59883076 -0.10212749 -0.14305194 -0.00031287922 0.013766511
-0.5792901 0.24826275 0.43552077 0.002965435 0.0144527685 0.046595078 -0.008080629 -0.16781518
-0.09415634 -0.02322589 -0.13757002 -0.079039305 0.08495795 -0.23349209 -0.022402205 -0.034953848
-0.14073624 -0.20426384 0.0034722164 0.22518453 -0.011716583 -0.0019304426 0.0035989517 0.1615067
0.18235745 -0.09244525 -0.17982534 -0.35842076 0.030648438 -0.003957133 0.022401385 -0.3092316
-0.0120915 0.06966617 -0.11724158 0.34151864 0.011568541 0.011414312 0.0042329514 -0.019166006
-0.0402685 -0.19714548 0.0032159009 0.0056828023 -0.229651 0.11128295 -0.044664685 -0.07418003
0.0053103804 0.096840896 -0.010287598 -0.18754658 -0.15633398 0.26078868 0.18384396 0.06531243
-0.104801625 0.0017676858 0.038392577 0.014684647 -0.020240556 -0.00034473324 -0.13183556 -0.15476531
0.3957867 0.26579666 0.29694936 0.0050295414 -0.012408171 -0.010043479 -0.6291861 -0.010600411
0.14878356 0.20911577 0.10357908 0.021708274 -0.024962211 0.02895647 -0.27186307 0.19942355
0.2238941 -0.0053855744 -0.03240786 -0.27122894 -0.08312467 -0.13869072 0.12636688 -0.0022656936
0.22624055 -0.33745843 0.22846957 0.08816365 -0.77716476 -0.6112603 0.16670406 0.24495842
-0.005433802 0.36735806 -0.015756374 0.018646188 -0.007861967 0.69989675 -0.52174866 -0.24594186
-0.36130774 0.13008142 0.26739883 0.017280912 -0.0010587531 0.22180876 0.024205878 -0.095784836
-0.76024485 0.15850222 -0.5252008 -0.012187184 -0.025951348 -0.63094056 0.35608098 0.50042456
-0.0058298404 -0.0003628215 -0.29429018 0.022709627 -0.43192688 -0.1553334 -0.019183893 0.0004111809
0.27754018 0.014829101 -0.07151154 -0.12611024 -0.00040949904 -0.010280373 0.11806704 -0.019072505
00000000: ef50 463f b941 ba3c 938e 743c 52ea 09bc
00000010: 759c cc3d acd8 ee3e 01be a0bb ced6 bb3c
00000020: 5bb7 32bb 2d7e db3d b4cc a73c 6e9c 0c3d
00000030: 2855 84bb 0ef4 013f b358 1f3d a5e9 bd3c
00000040: dba6 2cbd 9f97 183d 1dd0 7d3d 9924 e73d
00000050: bc38 6fbd 16e8 40bb 2d4f 923d 4c10 443c
00000060: 4a88 9cbc 1c45 2ebb 6f33 a2be c30e 5bbe
00000070: 7c08 0bbe 26c5 9dbd bcbf 59be 06d2 f7bc
00000080: 6e16 ba3a 6c2b bcbb 631d b1bd ce93 88bc
00000090: 057f 88bd d0bd 50bd 1b74 a5bd 62a7 9dbe
000000a0: 186d 3c3c d30e 33bb 7b92 933d 8533 423d
000000b0: 42ab 0f3e 2ecc e93c 56fb 1dbc 333d 1ebe
000000c0: d211 77bc 455c 763d a01d d7bd be40 c8bc
000000d0: eb97 d43e 2945 92be 0433 e03e bf93 0e3d
000000e0: 8aef 66be 35b7 64bd 4e87 04be 19fd 84be
000000f0: 74df 7dbc d9ca ad3c 4a87 f73a 1037 e7b8
00000100: a474 53bc ec7a 443e 8449 d43d 48f9 b6bc
00000110: 679b df3e c564 483d 8135 20be c5ec 0fbc
00000120: 51a8 cf3c 89bb b83e 44cc 38bd b654 2c3f
00000130: fb74 ae3d 9d28 a5bd 665a 153e a6a2 1fbc
00000140: d0f2 11bb 8c9d a3be 20e8 8c3f b9d4 6ebe
00000150: 1432 0d3d b49c c3bc 8fa1 8fbf 6dc7 c23e
00000160: 8d51 143c e0b5 b33e 2461 16bc 3108 0a3e
00000170: 5fd3 c43e 88ef a33d a779 14bf b356 78bf
00000180: 41ad 0f3e 4f58 0fbe 1290 263f a431 4bbc
00000190: b713 d73e fa83 5cbc 704d 933a 0fb5 d33b
000001a0: e0cb 25be 54e8 993e 03cb 8c3f 46df 2b3f
000001b0: f115 403e 7ca9 cf3c ac84 aabc 86c5 793c
000001c0: 9b04 2cbe dd1a 99ba 55c4 113f f94c 19bf
000001d0: 3828 d1bd 357c 12be f009 a4b9 ef8c 613c
000001e0: 5b4c 14bf 9738 7e3e 94fc de3e be57 423b
000001f0: 4ecb 6c3c 7bda 3e3d 9d64 04bc bed7 2bbe
00000200: 0ad5 c0bd 3944 bebc 28df 0cbe 5cdf a1bd
00000210: 6ffe ad3d 8d18 6fbe d484 b7bc c42b 0fbd
00000220: 291d 10be 8a2a 51be 208e 633b c696 663e
00000230: e9f6 3fbc e806 fdba 64dc 6b3b 0362 253e
00000240: e9bb 3a3e ef53 bdbd 2224 38be ed82 b7be
00000250: 6f12 fb3c d6aa 81bb 1c83 b73c 9b53 9ebe
00000260: 6d1b 46bc 23ad 8e3d 5a1c f0bd 88db ae3e
00000270: fa89 3d3c 1803 3b3c 92b4 8a3b 0702 9dbc
00000280: 95f0 24bd 81e0 49be ddc1 523b cd36 ba3b
00000290: a229 6bbe 51e8 e33d 51f2 36bd b3eb 97bd
000002a0: b302 ae3b 8554 c63d 508d 28bc 360c 40be
000002b0: 0416 20be 1886 853e 9741 3c3e 86c2 853d
000002c0: 3ca2 d6bd b1b1 e73a 8941 1d3d e097 703c
000002d0: 86cf a5bc 50bd b4b9 e7ff 06be cc7a 1ebe
000002e0: 8ea4 ca3e 8016 883e bf09 983e dace a43b
000002f0: a44b 4bbc 678d 24bc 5712 21bf 59ad 2dbc
00000300: b85a 183e 7222 563e 4521 d43d 8dd5 b13c
00000310: 8d7d ccbc 1e36 ed3c a331 8bbe b035 4c3e
00000320: 7f44 653e 7979 b0bb 1bbe 04bd 85de 8abe
00000330: 443d aabd f104 0ebe 5266 013e 087c 14bb
00000340: 9aab 673e 5ac7 acbe edf3 693e 258f b43d
00000350: 45f4 46bf 8e7b 1cbf 78b4 2a3e 61d6 7a3e
00000360: 090e b2bb 5b16 bc3e 8313 81bc e4bf 983c
00000370: 7bcf 00bc 6f2c 333f 5291 05bf 2fd8 7bbe
00000380: 54fd b8be 1034 053e 80e8 883e b390 8d3c
00000390: dcc5 8aba d621 633e 684b c63c d72a c4bd
000003a0: 689f 42bf 684e 223e 8f73 06bf c1ac 47bc
000003b0: ec97 d4bc 5285 21bf 3f50 b63e d31b 003f
000003c0: 3f08 bfbb 1439 beb9 34ad 96be 8a09 ba3c
000003d0: 8525 ddbe b80f 1fbe 8a27 9dbc c493 d739
000003e0: bf19 8e3e c2f5 723c a474 92bd 0b23 01be
000003f0: 08b2 d6b9 026f 28bc 22cd f13d f13d 9cbc

fc2.bias f4 [19]
0.05856133 0.03425601 1.4844408 -0.14903575 0.30070236 1.4276828 -0.325006 -0.020648008
-0.09953426 -0.21243356 -0.45994735 -1.5598772 -0.0057805893 0.6720681 1.2348783 0.16539156
0.15664233 0.12125074 -2.075756
00000000: 01de 6f3d 0850 0c3d 2802 be3f d49c 18be
00000010: a9f5 993e 4fbe b63f 3067 a6be 0326 a9bc
00000020: 9ed8 cbbd 2f88 59be 387e ebbe 0eaa c7bf
00000030: 196b bdbb a80c 2c3f 7e10 9e3f 685c 293e
00000040: d966 203e 4f52 f83d 30d9 04c0

fc3.weight f4 [9, 19]
0.06413896 -0.18672921 -0.21997894 -0.15256019 0.20240034 -0.33358765 0.18479368 -0.027938198
0.3146887 0.3380491 0.05546791 0.090716 -0.24368417 0.17181505 0.032645833 0.15722626
0.025473766 0.007184438 -0.3693175 0.0651238 0.059098914 -0.016726334 -0.33573928 -0.32781202
0.08666635 0.13777813 -0.0051066517 -0.13225342 -0.008886136 0.17141931 0.08147355 -0.13483176
0.023608033 0.25412175 -0.13308676 -0.2184863 0.011281911 -0.5776371 -0.035481974 0.13015904
-0.032740645 0.24238428 0.0014828625 -0.10106887 -0.09909447 -0.0061579947 0.072519496 0.05006885
-0.18353856 -0.13564335 -0.31588534 0.14954156 0.59373 0.11979247 -0.11137954 0.21950565
0.4159233 -0.039186403 -0.014714059 0.67288655 0.08593236 0.01826645 -0.023008661 0.0004356578
-0.0015549412 0.03129945 -0.03563534 0.32909048 -0.06985438 0.029338386 0.420421 -0.0024349529
0.042225897 0.0015157763 0.02916685 0.2301696 -0.0014658007 -0.08999149 -0.32845455 0.15118565
0.053594578 -0.30572093 -0.049330246 -0.0056250775 -0.065663524 -0.15355575 0.49867854 -0.0046763467
0.081981264 -0.27876034 0.109638795 -0.018581858 -0.11457689 0.23072903 0.049276803 -0.16900033
0.12717044 -0.17538139 -0.16516264 0.10141824 -0.09211113 0.0006018902 -0.013186584 -0.12676564
0.30728024 -0.058424145 -0.39425173 0.18812107 -0.0697027 -0.22773604 0.11123088 -0.11087444
0.28262162 -0.39701474 0.07918509 0.12406991 0.0006599763 -0.07299319 0.057124637 -0.5268307
0.074306354 -0.020541338 -0.2925479 -0.056928903 -0.10784479 0.1610761 -0.08365263 0.20991786
0.13687514 -0.36911967 0.046050396 0.0062654517 -0.2267336 -0.026879895 0.04005702 0.22565627
-0.099030174 0.3145208 0.10522185 0.26755762 0.007476398 -0.12316699 -0.13094391 -0.043502994
-0.08317277 -0.22266985 -0.3523532 0.28350756 0.18342718 0.17564462 -0.115824744 0.19744697
-0.2708234 -0.20264731 -0.21419115 -0.047899786 -0.081179485 -0.081392236 0.050502073 0.01563187
0.07909476 -0.13136093 0.037032697 -0.53662086 -0.15612899 -0.010821094 -0.05622887 -0.18555456
0.05510561 -0.19210117 0.102450855
00000000: 495b 833d f135 3fbe 2942 61be bd38 1cbe
00000010: 0942 4f3e 00cc aabe 8e3a 3d3e a6de e4bc
00000020: e11e a13e c614 ad3e 5232 633d 4fc9 b93d
00000030: 5888 79be 49f0 2f3e a3b7 053d ecff 203e
00000040: 5cae d03c 6f6b eb3b 2f17 bdbe a05f 853d
00000050: b411 723d aa05 89bc 05e6 abbe fad6 a7be
00000060: 217e b13d b615 0d3e b355 a7bb 716d 07be
00000070: 2897 11bc 8b88 2f3e 9bdb a63d 5611 0abe
00000080: a265 c13c 3f1c 823e e547 08be dfba 5fbe
00000090: c4d7 383c 06e0 13bf 8c55 11bd 6948 053e
000000a0: 0e1b 06bd 9633 783e 9c5c c23a 32fd cebd
000000b0: 0bf2 cabd 01c9 c9bb 1a85 943d ff14 4d3d
000000c0: 88f1 3bbe 17e6 0abe b9bb a1be 6c21 193e
000000d0: b0fe 173f c155 f53d f51a e4bd 17c6 603e
000000e0: e6f3 d43e ec81 20bd 3d13 71bc 4b42 2c3f
000000f0: 4efd af3d 86a3 953c a97c bcbc 0069 e439
00000100: 2bcf cbba da33 003d 5df6 11bd 8c7e a83e
00000110: d00f 8fbd 0e57 f03c 6c41 d73e bb93 1fbb
00000120: 10f5 2c3d 03ad c63a 51ef ee3c 94b1 6b3e
00000130: 1c20 c0ba 754d b8bd 322b a8be 69d0 1a3e
00000140: fd85 5b3d 7487 9cbe 830e 4abd 9252 b8bb
00000150: 997a 86bd b83d 1dbe cb52 ff3e 0a3c 99bb
00000160: cbe5 a73d adb9 8ebe 4e8a e03d fb38 98bc
00000170: 4aa7 eabd 3b44 6c3e 79d6 493d 6c0e 2dbe
00000180: f838 023e 2e97 33be 6520 29be 5eb4 cf3d
00000190: c3a4 bcbd 2bc8 1d3a 8b0c 58bc dace 01be
000001a0: d653 9d3e 284e 6fbd 5ddb c9be cfa2 403e
000001b0: 4ac0 8ebd a333 69be 04cd e33d 2312 e3bd
000001c0: c8b3 903e 8445 cbbe cb2b a23d 5d18 fe3d
000001d0: 4202 2d3a 747d 95bd 86fb 693d 60de 06bf
000001e0: ee2d 983d 4f46 a8bc d7c8 95be 482e 69bd
000001f0: bbdd dcbd 22f1 243e 1252 abbd b5f4 563e
00000200: ff28 0c3e 41fd bcbe 579f 3c3d 6b4e cd3b
00000210: da2c 68be 3a33 dcbc d412 243d 7012 673e
00000220: 55d0 cabd df08 a13e 8e7e d73d 50fd 883e
00000230: 92fc f43b fa3e fcbd 2916 06be 3230 32bd
00000240: 7c56 aabd 9103 64be a367 b4be e727 913e
00000250: 56d4 3b3e 2fdc 333e 8635 edbd 8a2f 4a3e
00000260: 5da9 8abe c782 4fbe ed54 5bbe 9132 44bd
00000270: 6e41 a6bd f9b0 a6bd 43db 4e3d 680e 803c
00000280: 6ffc a13d 7b83 06be 99af 173d fc5f 09bf
00000290: 47e0 1fbe f54a 31bc 3e50 66bd 0402 3ebe
000002a0: 6cb6 613d 2bb6 44be c1d1 d13d

fc3.bias f4 [9]
-0.06430564 -0.80374616 -0.30034554 -0.64769727 0.79396516 -0.29426655 0.06087801 -0.0918136
-0.07830048
00000000: adb2 83bd 4fc2 4dbf e4c6 99be 7dcf 25bf
00000010: 4d41 4b3f 1baa 96be 385b 793d c508 bcbd
00000020: 015c a0bd
