cores/AE_new_test.pt (torch, 18312 bytes, 6 tensors)

fc1.weight f4 [39, 77]
0	0x3e619a24	0.22031456
1	0xbe1e6342	-0.15467551
2	0x3d209b15	0.039210398
3	0x3e31a527	0.17348157
4	0xbe663d36	-0.22484288
5	0x3e36d6dd	0.17855401
6	0x3e4f791d	0.20261045
7	0xbd1fe750	-0.039038956
8	0xbdce8996	-0.10084836
9	0xbd9fc856	-0.07801883
10	0xbe16c26b	-0.14722602
11	0xbe45fd90	-0.19335008
12	0xbdb059a8	-0.086108506
13	0xbc6faa27	-0.01462797
14	0xbd8e04e3	-0.06934526
15	0xbe416464	-0.18885952
16	0xbe38c383	-0.18043332
17	0x3d75b049	0.05998257
18	0xbd9287a6	-0.07154779
19	0x3e4c6b62	0.19962838
20	0x3dbcd6e1	0.092206724
21	0xbe6eb018	-0.23309362
22	0xbe0211fc	-0.12702173
23	0x3e3bb574	0.18330938
24	0x3d2c5fdc	0.042083606
25	0xbe2de680	-0.1698246
26	0x3dbc6d2c	0.092005104
27	0x3e36709e	0.17816398
28	0x3e2dfc0f	0.16990684
29	0xbe73e259	-0.23816814
30	0xbd2ab564	-0.041676894
31	0x3e588abe	0.21146676
32	0x3e1a972c	0.1509673
33	0x3df98098	0.121827304
34	0x3c2b719f	0.010464101
35	0xbe31735f	-0.17329167
36	0x3e2ab8ce	0.1667206
37	0x3e641bcf	0.22276233
38	0x3d05713e	0.0325787
39	0xbdac8413	-0.08423629
40	0xbd695295	-0.056963522
41	0x3db8573b	0.09001013
42	0x3e77ebdb	0.24211065
43	0x3e2c1f42	0.16808799
44	0x3d40f084	0.047104374
45	0xbe472f9d	-0.19451757
46	0x3eac3bc7	0.33639356
47	0xbde88425	-0.113533296
48	0x3d0997f4	0.03359218
49	0x3dd0240c	0.101631254
50	0x3e11eefd	0.14251323
51	0x3e33f9fa	0.17575827
52	0xbe30c415	-0.172623
53	0xbe0f863e	-0.14016053
54	0x3d1f5957	0.03890356
55	0x3d4e4e90	0.05036789
56	0x3ce8db80	0.028424978
57	0xbe2d18ee	-0.16904041
58	0x3c30b930	0.01078634
59	0xbdd241c3	-0.10266449
60	0xbe2bcef4	-0.16778165
61	0x3e3972ce	0.18110201
62	0xbc832e99	-0.01601343
63	0x3e0222e7	0.12708627
64	0xbdde7f54	-0.1086413
65	0xbe3abb6e	-0.18235561
66	0x3ce5a875	0.028034428
67	0xbd20e796	-0.039283358
68	0xbe17bd8c	-0.148184
69	0x3dadce8b	0.084866606
70	0xbcfc5c26	-0.030805659
71	0xbe21da8d	-0.15806027
72	0x3d356ff1	0.04429621
73	0x3db00d54	0.08596292
74	0x3e78f4ee	0.24312183
75	0xbe584930	-0.21121669
76	0x3e15d559	0.14632167
77	0xbd379120	-0.044816136
78	0xbe0b9510	-0.13631082
79	0xbd7fc86a	-0.06244699
80	0x3d9ad77c	0.07560632
81	0x3b46f805	0.0030360234
82	0xbd8bc73a	-0.06825109
83	0xbcf642b9	-0.030061113
84	0x3c8ded0b	0.017324945
85	0xbd406caa	-0.04697863
86	0xbe19db2e	-0.15025017
87	0xbd0433da	-0.032276012
88	0x3def4170	0.11682403
89	0xbe50400e	-0.20336935
90	0x3dbba1ff	0.09161758
91	0x3e5fb2d0	0.21845555
92	0xbc5eb165	-0.013592099
93	0xbd5c40e1	-0.05377281
94	0x3c4ef5f5	0.012631883
95	0xbd01aa84	-0.031656757
96	0x3ca99572	0.020701144
97	0xbdccbf3c	-0.099974126
98	0x3de38058	0.11108464
99	0x3e484e30	0.19561076
100	0xbd82f891	-0.063950665
101	0x3dd392e3	0.10330751
102	0xbe0df83c	-0.13864225
103	0x3e464f23	0.19366126
104	0x3e068ada	0.13138905
105	0xbcda6505	-0.026659498
106	0x3beeee31	0.007291578
107	0xbcfbd88f	-0.030742912
108	0x3e0e5a0e	0.1390154
109	0xbe3a3810	-0.18185449
110	0xbd99fd24	-0.07518986
111	0x3d782f29	0.06059185
112	0xbdae209e	-0.08502315
113	0x3e7b7028	0.24554503
114	0x3e3a30e8	0.18182719
115	0xbd412baf	-0.0471608
116	0xbce0e0dc	-0.027450971
117	0xbdcb5131	-0.099275954
118	0x3ddbb1cb	0.10727271
119	0x3dcbd0f9	0.09951968
120	0xbe140d67	-0.14458238
121	0xbcaac0bd	-0.020843858
122	0x3de96c19	0.11397571
123	0xbe034e38	-0.12822807
124	0x3e5ad80d	0.2137148
125	0x3dd8dcac	0.10588965
126	0x3e45d72c	0.19320363
127	0xbdaabf47	-0.083372645
128	0x3e3f7b0c	0.18699282
129	0xbe011d77	-0.12608896
130	0x3e003de5	0.12523611
131	0xbe1217a7	-0.14266835
132	0x3e2eed5c	0.17082733
133	0xbe1dcea4	-0.15410858
134	0x3e517450	0.20454526
135	0x3db08440	0.08618975
136	0x3e1e228e	0.15442869
137	0x3da24c20	0.07924676
138	0x3df48b37	0.119406156
139	0x3d6a8cf8	0.057263345
140	0x3dc805d8	0.097667396
141	0xbe202d30	-0.15642238
142	0x3d3734ec	0.044728205
143	0xbdc1491b	-0.09437772
144	0xbe22cf10	-0.158993
145	0x3d275dd6	0.040860973
146	0x3d419830	0.047264278
147	0x3df4f767	0.11961251
148	0x3dc03668	0.09385377
149	0xbc8b49fd	-0.017003054
150	0x3e514efe	0.2044029
151	0x3d66e5a7	0.056371357
152	0xbce33ac9	-0.027737992
153	0x3e74fbf8	0.23924243
154	0x3d4aadae	0.04948204
155	0xbc7e8600	-0.015534878
156	0x3cb27db2	0.021788452
157	0x3e085338	0.13312995
158	0x3df688b3	0.12037792
159	0xbdc46c8e	-0.09591018
160	0xbe625386	-0.22102174
161	0x3deb448b	0.11487683
162	0xbcaed689	-0.021342533
163	0x3e2bbcad	0.16771193
164	0x3e342566	0.17592391
165	0x3e26757a	0.16255751
166	0xbd084c3f	-0.03327584
167	0xbd19a039	-0.037506316
168	0x3d57c7d5	0.05268081
169	0x3d497b58	0.049189895
170	0x3c759eb4	0.014991451
171	0xbdc03442	-0.093849674
172	0x3d8ed498	0.06974143
173	0xbe3363d3	-0.17518549
174	0x3df811b7	0.12112754
175	0xbe4da70b	-0.20083253
176	0x3e006f79	0.12542523
177	0x3e22c526	0.15895519
178	0x3cbadcb5	0.02281032
179	0x3e240c07	0.16020213
180	0x3e2e46af	0.17019151
181	0xbd0654f0	-0.032795846
182	0xbcba7943	-0.0227629
183	0x3e068880	0.13138008
184	0x3e17288d	0.14761563
185	0x3d8bfa4c	0.0683485
186	0x3da1e9ac	0.079058975
187	0x3df7294c	0.12068424
188	0xbcf6d40d	-0.03013041
189	0xbe156420	-0.14588976
190	0x3e0b8e41	0.13628484
191	0x3e20ef85	0.1571637
192	0xbe06ee9a	-0.13176957
193	0x3d82858f	0.063731305
194	0xbe67462c	-0.22585362
195	0x3d69ff58	0.05712828
196	0xbe1a683f	-0.15078829
197	0xbe1d507e	-0.15362737
198	0x3e8810dc	0.26575363
199	0x3db4ccb3	0.08828106
200	0x3e3b8564	0.18312603
201	0xbe2174dd	-0.15767236
202	0x3d87a374	0.06622973
203	0x3d1915a0	0.03737414
204	0x3e486885	0.19571121
205	0x3a598658	0.0008297912
206	0xbe41f42c	-0.189408
207	0xbc6f1f9d	-0.01459494
208	0xbdee728d	-0.116429426
209	0x3c80be58	0.015715763
210	0xbdd55393	-0.10416331
211	0x3dcc4cc8	0.09975582
212	0xbdfd5399	-0.123694606
213	0xbdd87e76	-0.105709955
214	0xbe366f62	-0.17815927
215	0xbdad5c2a	-0.084648445
216	0xbd44f4c2	-0.04808498
217	0x3d5f3b89	0.054500137
218	0x3e168088	0.14697468
219	0x3c0efcb1	0.0087272385
220	0x3e1b9727	0.15194379
221	0x3cb492af	0.0220426
222	0x3c0d7301	0.008633376
223	0xbe33ce01	-0.17559053
224	0x3db13c23	0.08654048
225	0xbcc912b3	-0.02454505
226	0xbe5d8942	-0.21634391
227	0x3d875fe9	0.0661009
228	0xbc882a40	-0.016621709
229	0x3e07638d	0.1322157
230	0x3e2c8947	0.16849242
231	0xbde817bd	-0.11332653
232	0xbd9a17e3	-0.07524087
233	0x3dd85ace	0.105641946
234	0x3dc1590a	0.09440811
235	0xbe46ba72	-0.1940706
236	0x3e0c4b3f	0.13700579
237	0xbd9603d5	-0.0732495
238	0xbdbe91ec	-0.09305176
239	0xbe4d4153	-0.2004445
240	0xbe47235a	-0.1944708
241	0xbd48ad80	-0.048993587
242	0xbda475e0	-0.08030295
243	0x3e617346	0.2201663
244	0x3ba4a68b	0.0050247363
245	0x3d661758	0.056174606
246	0xbd8c0fec	-0.06838974
247	0xbe3ae93b	-0.18253033
248	0xbcdbe19e	-0.026840981
249	0xbc1f19fd	-0.009710786
250	0x3e3b9ea2	0.18322232
251	0x3d91cfb2	0.07119693
252	0xbdae5765	-0.08512763
253	0xbe1b06a5	-0.15139253
254	0x3e21ab18	0.15787923
255	0x3ab2c973	0.0013640359

fc1.bias f4 [39]
0	0x3d25ab7f	0.040446755
1	0x3c84e983	0.016224628
2	0xbd87f77a	-0.06638999
3	0x3d1d0c4b	0.0383418
4	0xbce81d56	-0.028334301
5	0x3d416f02	0.047225006
6	0xbd5f9194	-0.054582193
7	0xbb5c4167	-0.0033608319
8	0xbd11f9ed	-0.03563874
9	0x3cc31500	0.023813725
10	0x3aeed1ee	0.0018220523
11	0xbcd0e405	-0.025499353
12	0xbc82ac35	-0.015951255
13	0x3c9a51f6	0.01883791
14	0xbd2c2d9b	-0.04203568
15	0x3c5dd472	0.01353942
16	0x3975e94f	0.00023451935
17	0x3d1f60d9	0.03891072
18	0xbd3fbed6	-0.046812855
19	0x3c6379df	0.013884037
20	0x3cd22e1d	0.025656754
21	0x3ce82f0b	0.028342744
22	0xbb67717d	-0.0035315447
23	0x3d8bdd66	0.06829338
24	0xbd1eaedc	-0.038740978
25	0xbcc5c1e3	-0.024140304
26	0xbcadd532	-0.021219824
27	0x3cf5ee06	0.030020725
28	0x3c981475	0.018564442
29	0xbd803625	-0.06260327
30	0x3c3929c2	0.01130146
31	0xbc9948fb	-0.018711558
32	0xbd958cba	-0.07302232
33	0x3b168c9a	0.0022971989
34	0xbd188458	-0.037235588
35	0x3b685407	0.0035450475
36	0xbba4eaf7	-0.005032893
37	0x3d03fd69	0.032224093
38	0x3d1df779	0.038566086

fc2.weight f4 [19, 39]
0	0xbe6f888d	-0.23391934
1	0x3e94b91d	0.2904748
2	0xbd2dd7b3	-0.042442035
3	0xbdbe9c35	-0.09307138
4	0x3d999b06	0.075002715
5	0xbe70311b	-0.23456232
6	0xbdf10456	-0.11768405
7	0xbd7677d2	-0.060172863
8	0x3c3ad425	0.011403118
9	0x3e25ff2a	0.16210619
10	0x3d779737	0.060446944
11	0x3dfc928b	0.12332638
12	0xbe63beef	-0.22240804
13	0xbe572ed9	-0.21013965
14	0x3e897794	0.26849043
15	0xbdfd918c	-0.123812765
16	0x3dc85898	0.09782523
17	0x3dd2b9c1	0.10289336
18	0x3e4901cd	0.19629593
19	0x3d1f7dcc	0.03893833
20	0x3e15f7db	0.1464533
21	0xbe8bcae9	-0.27303246
22	0xbe74ec4c	-0.23918265
23	0xbe25f98b	-0.16208474
24	0xbe9a6694	-0.30156386
25	0xbda5286e	-0.08064352
26	0xbea3976e	-0.3195147
27	0x3e734126	0.23755321
28	0xbccc65dc	-0.024950914
29	0xbc7b9475	-0.015355219
30	0xbe99e06d	-0.30054036
31	0x3e628722	0.22121862
32	0x3dcc9370	0.09989059
33	0x3daf5259	0.085606284
34	0xbe86ec7f	-0.26352307
35	0xbe4d0d06	-0.200245
36	0xbda1f1ea	-0.079074696
37	0x3e75a580	0.23988914
38	0x3ddb613e	0.10711907
39	0xbdfc3a2a	-0.123157814
40	0x3e3ae306	0.18250665
41	0xbe012a0b	-0.12613694
42	0x3d9bd029	0.07608063
43	0xbdf70c44	-0.12062886
44	0xbe45a2b8	-0.19300354
45	0x3ea17094	0.31531203
46	0xbe4dc20b	-0.20093553
47	0x3e79a2f1	0.24378563
48	0x3e43b62b	0.1911246
49	0xbe9b222d	-0.30299512
50	0xbe81499f	-0.2525148
51	0xbcb82d57	-0.022482557
52	0x3e7220e5	0.23645361
53	0xbe86e52e	-0.26346725
54	0xbd9dc69f	-0.077038996
55	0xbc7d9156	-0.015476545
56	0xbeb2fa70	-0.34956694
57	0x3e8e0196	0.27735585
58	0xbe329b3f	-0.17442034
59	0x3df0055a	0.11719771
60	0x3d4f0a00	0.050546646
61	0xbd2aa303	-0.041659366
62	0x3e1b8d2b	0.1519057
63	0xbe266dc8	-0.16252816
64	0xbe8a6a02	-0.27034003
65	0xbe953e47	-0.29149076
66	0x3e5fbf42	0.21850303
67	0x3e6a34a8	0.2287165
68	0xbe99c910	-0.3003621
69	0xbcfb3d29	-0.030668812
70	0x3e4540b8	0.1926297
71	0xbc640558	-0.01391729
72	0x3e3de107	0.18542872
73	0xbd91ea01	-0.07124711
74	0xbdc00f98	-0.09377974
75	0xbd4e984e	-0.050438218
76	0x3d3f01af	0.046632465
77	0xbd29699a	-0.041360475
78	0x3e96c685	0.29448333
79	0xbeb8d296	-0.36098164
80	0xbdd5da7a	-0.10442062
81	0xbd86ceb5	-0.06582395
82	0xbe4c84cc	-0.19972533
83	0xbe31e741	-0.17373373
84	0xbe38ad15	-0.18034776
85	0xbd1d4fa0	-0.038406014
86	0x3d8edcbb	0.06975695
87	0x3e6d057e	0.23146626
88	0xbd4315a8	-0.047628075
89	0x3e6461e5	0.22302969
90	0xbcdee747	-0.027209891
91	0xbd8a4c81	-0.06752873
92	0xbe09f32e	-0.13471672
93	0xbe159a74	-0.146097
94	0x3e98b8b4	0.29828417
95	0x3e8e9802	0.27850348
96	0xbe676c20	-0.2259984
97	0xbd9633e1	-0.07334114
98	0x3e14058f	0.14455245
99	0x3e88d0fc	0.26721942
100	0xbe642018	-0.22277868
101	0x3e3f0eef	0.1865804
102	0xbe906610	-0.28202868
103	0xbde1a773	-0.110182665
104	0xbe210de7	-0.1572796
105	0x3da8ac56	0.082359955
106	0x3e45ae74	0.1930483
107	0xbe490a24	-0.19632775
108	0xbe6e18b0	-0.23251605
109	0xbe946064	-0.2897979
110	0xbde99d24	-0.11406925
111	0xbd407074	-0.046982244
112	0xbe286166	-0.16443405
113	0xbd978e50	-0.07400191
114	0x3d5b7d51	0.053586308
115	0x3e05287b	0.13003723
116	0x3d4fc6fb	0.050726872
117	0x3d3eae57	0.046552982
118	0x3e4c2133	0.1993454
119	0xbce9d333	-0.02854309
120	0xbde71860	-0.11283946
121	0xbe983a92	-0.29732186
122	0x3e527b9f	0.2055497
123	0xbe3488fd	-0.17630382
124	0x3e5886d8	0.21145189
125	0xbe932dbc	-0.2874583
126	0x3d5e264b	0.054235738
127	0x3e2298db	0.15878622
128	0xbdedbb50	-0.11607993
129	0x3e4da798	0.20083463
130	0xbe307cae	-0.17235062
131	0xbe828ebc	-0.25499523
132	0xbe8f559a	-0.27994996
133	0x3dbe9ac9	0.09306867
134	0x3ea41196	0.32044667
135	0xbe862e52	-0.26207215
136	0xbd0e09a0	-0.034677148
137	0xbe7b61a5	-0.24548967
138	0x3e97adfe	0.29624933
139	0x3d7ddcc1	0.061978105
140	0x3e949dcb	0.29026636
141	0xbe900de7	-0.28135607
142	0xbe9aa6f9	-0.30205515
143	0x3d5ba788	0.053626567
144	0xbcc5b1ea	-0.024132688
145	0x3dd4ed52	0.10396828
146	0xbd96fc39	-0.073723264
147	0x3e86f8d2	0.2636171
148	0xbc79e6e1	-0.0152528
149	0xbe94fbd3	-0.29098377
150	0x3d92cc97	0.07167929
151	0xbe175f97	-0.14782558
152	0x3e19f44a	0.15034595
153	0xbe8efcff	-0.27927396
154	0xbe6044e8	-0.21901286
155	0x3e8ce0ab	0.27515158
156	0x3eb2e2ea	0.34938747
157	0xbe765efc	-0.24059671
158	0xbd6d9475	-0.058002908
159	0xbe8db05e	-0.2767362
160	0x3e93ebae	0.28890747
161	0x3a4575a4	0.00075324834
162	0x3ddd6542	0.10810329
163	0x3d7a5420	0.061115384
164	0x3e6f8cf7	0.23393618
165	0x3e4ce31c	0.2000851
166	0xbe2422d5	-0.16028912
167	0xbb46501f	-0.0030260158
168	0x3e9f3fc9	0.31103352
169	0xbceaf99f	-0.028683482
170	0xbddf19f7	-0.10893624
171	0xbe416b4b	-0.18888585
172	0x3d518ac9	0.051157746
173	0x3df00011	0.11718763
174	0x3cd822a2	0.026383702
175	0x3e1211aa	0.14264551
176	0xbd4d337f	-0.05009794
177	0xbea58dc1	-0.32334712
178	0x3e98ca79	0.29841974
179	0xbe7593a1	-0.23982097
180	0xbe8e74a5	-0.27823368
181	0xbe67f8a6	-0.22653446
182	0xbd341ad4	-0.043970898
183	0x3e193481	0.14961435
184	0x3dbd35ec	0.092388004
185	0x3e17fdb3	0.14842872
186	0x3e539fce	0.2066643
187	0x3e9d2d6b	0.30698714
188	0xbe442355	-0.19154103
189	0xbe604113	-0.21899824
190	0x3cf73824	0.030178137
191	0xbcc91468	-0.024545863
192	0xbe73d8b7	-0.23813139
193	0xbe4bdaba	-0.19907656
194	0xbdde0c6e	-0.108422145
195	0xbc053b16	-0.008131763
196	0xbd082525	-0.03323855
197	0x3e85a344	0.26101124
198	0xbd1bb954	-0.03801854
199	0xbe8433ae	-0.25820678
200	0x3d83909f	0.06424069
201	0xbce0a850	-0.027424008
202	0x3e9a52d3	0.30141315
203	0xbdb2d502	-0.08732034
204	0x3d9d4ceb	0.076806866
205	0xbcf79636	-0.030222993
206	0x3e37d9ef	0.17954229
207	0xbeae3b9c	-0.34029853
208	0x3e709f53	0.23498277
209	0x3e821fb0	0.254148
210	0xbd0212cb	-0.031756204
211	0xbe0683f6	-0.13136277
212	0xbda1583f	-0.0787816
213	0x3e8f8b8a	0.28036147
214	0x3e81a73b	0.253229
215	0xbe450c45	-0.19242962
216	0x3e9afbce	0.30270237
217	0xbdc65a30	-0.09685171
218	0x3ddb6b21	0.107137926
219	0x3e388ba7	0.18022023
220	0xbd8494e3	-0.064737104
221	0x3e3d19c0	0.18466854
222	0x3e983e21	0.297349
223	0x3e091799	0.13387908
224	0x3e4e3872	0.2013872
225	0x3d96210a	0.073305205
226	0xbeab2fc5	-0.33434883
227	0x3eaa72e7	0.3329079
228	0x3e786dc3	0.24260621
229	0x3e82c55f	0.25541207
230	0x3e926e30	0.2859969
231	0xbe71820a	-0.23584762
232	0x3e8c7527	0.2743313
233	0xbd96a4a7	-0.07355624
234	0x3e8cf2ae	0.275289
235	0xbe1c518d	-0.15265484
236	0xbe8244ec	-0.25443208
237	0xbea12a91	-0.31477788
238	0xbdb9c820	-0.09071374
239	0x3dc8ce71	0.098050006
240	0x3e970152	0.29493195
241	0xbc8beb2c	-0.017079912
242	0xbe827921	-0.2548304
243	0x3e0393cc	0.12849349
244	0x3dc0eb82	0.094199196
245	0x3e54b6fb	0.20772927
246	0xbde217a8	-0.11039668
247	0x3cc4ca93	0.024022376
248	0x3bec03ea	0.007202615
249	0xbe052896	-0.13003764
250	0xbd97345c	-0.07383034
251	0xbe6c1d74	-0.2305811
252	0xbe44d13a	-0.19220439
253	0x3dbf937e	0.09354304
254	0x3caf4db8	0.021399364
255	0xbdac62f0	-0.08417308

fc2.bias f4 [19]
0	0xbcc55515	-0.024088422
1	0x3ce95d31	0.02848682
2	0x3d440318	0.047854513
3	0x3d44a78e	0.048011355
4	0xbc792191	-0.015205757
5	0xbbbe27ca	-0.005803083
6	0xbcea7b19	-0.02862315
7	0x3d2b7ac1	0.041865114
8	0x3bd7bd25	0.006583827
9	0xbce6f48e	-0.028192785
10	0x3cd8f352	0.026483212
11	0xbcb2830f	-0.02179101
12	0xbcdc63e6	-0.026903104
13	0x3c9e8b62	0.019353572
14	0x3d16f148	0.036851197
15	0xbc2fe423	-0.010735544
16	0xbc1300ed	-0.008972389
17	0x3d0cbb8e	0.034358554
18	0x3c87086e	0.016483512

fc3.weight f4 [9, 19]
0	0xbe4e54e1	-0.20149566
1	0x3ea694ec	0.32535493
2	0xbd382775	-0.044959504
3	0xbe267fc0	-0.1625967
4	0x3eb5e891	0.35528997
5	0x3c523007	0.012828833
6	0x3ecbde4f	0.39818045
7	0xbd4d97df	-0.050193664
8	0x3e90933c	0.2823733
9	0x3e612021	0.21984912
10	0xbee01025	-0.43762317
11	0xbe7ac681	-0.24489786
12	0xbe60d000	-0.21954346
13	0xbe95686d	-0.29181233
14	0xbe1fda84	-0.15610701
15	0xbeba2f7b	-0.3636435
16	0xbddae5e5	-0.1068838
17	0xbeb1dbce	-0.3473801
18	0xbea6ca20	-0.32576084
19	0xbe40d977	-0.18832956
20	0x3cc11da8	0.023573712
21	0x3e595c1a	0.2122654
22	0xbee87b24	-0.4540645
23	0xbce8882a	-0.02838524
24	0x3e1bd1c6	0.15216741
25	0xbd8ff29c	-0.07028696
26	0xbe03707a	-0.12835875
27	0xbe8eefef	-0.2791743
28	0xbed0e407	-0.4079897
29	0x3e633c6d	0.2219102
30	0x39babd91	0.00035617923
31	0x3e3019de	0.17197368
32	0x3e87bb0d	0.26509896
33	0xbe840343	-0.25783738
34	0xbee6abe1	-0.45053008
35	0x3cf731ca	0.030175108
36	0xbe7ecaad	-0.24882002
37	0xbd563d76	-0.052304707
38	0x3de2462e	0.11048542
39	0x3e5b2701	0.21401598
40	0x3ea2d60d	0.31803933
41	0x3ead0e29	0.33799866
42	0xbe9fb6b8	-0.3119409
43	0x3edb3079	0.4281042
44	0xbe7a1100	-0.24420547
45	0x3e217c6e	0.15770122
46	0xbdda0374	-0.1064519
47	0x3e23e4a6	0.16005191
48	0x3e02750b	0.12739961
49	0xbeaeadf9	-0.34117106
50	0xbeaf963a	-0.342943
51	0x3ebda03a	0.37036306
52	0xbe8e9845	-0.27850547
53	0xbe4206e8	-0.18947947
54	0x3e203e70	0.15648818
55	0x3ef26110	0.47339678
56	0x3e9e97f6	0.30975312
57	0x3dc7c1a9	0.097537346
58	0xbe83f3eb	-0.25772032
59	0xbd8b5027	-0.06802397
60	0x3e80104b	0.2501243
61	0x3d0b4bf6	0.03400799
62	0x3cb4029d	0.021973902
63	0xbd40c966	-0.04706707
64	0xbebb036a	-0.36526042
65	0x3efbe87a	0.49200803
66	0xbdc95a97	-0.09831732
67	0xbe955e45	-0.29173484
68	0xbe3b1a81	-0.18271829
69	0xbec46eee	-0.38365883
70	0x3ee7e5e7	0.4529259
71	0x3e2e1479	0.16999997
72	0x3efa829b	0.4892777
73	0xbe8a6ebe	-0.27037615
74	0xbee3c442	-0.4448567
75	0x3ed1b4f2	0.40958363
76	0xbebb1593	-0.36539897
77	0xbeb4012d	-0.35157147
78	0x3eab4bd2	0.33456284
79	0xbd892976	-0.06697361
80	0xbe7aa5cb	-0.24477307
81	0x3eebcab8	0.460531
82	0x3e98e986	0.29865664
83	0xbe96280d	-0.2932743
84	0xbea8dd1a	-0.32981187
85	0x3e30216e	0.17200252
86	0x3eb8261d	0.35966578
87	0x3ebb7268	0.36610723
88	0xbed24fd2	-0.41076523
89	0xbe545c8c	-0.20738429
90	0x3e196c78	0.14982784
91	0x3ecfb0eb	0.40564665
92	0xbe029e36	-0.12755665
93	0xbe34c8bc	-0.17654699
94	0xbe63cac7	-0.22245322
95	0x3efd88ac	0.49518335
96	0xbed98647	-0.42485258
97	0xbed95edc	-0.42455184
98	0x3a368770	0.0006962931
99	0xbe0c7c90	-0.13719392
100	0xbe1995c1	-0.14998533
101	0x3ee2927c	0.44252384
102	0x3e8e158f	0.27750823
103	0xbe53cf15	-0.20684464
104	0xbeb45538	-0.35221267
105	0xbd84b7eb	-0.06480392
106	0x3e1bcaa5	0.15214022
107	0x3ec723ba	0.38894445
108	0x3e8aacab	0.2708486
109	0xbe24de23	-0.16100363
110	0x3e0cedf7	0.13762651
111	0x3e85e942	0.26154524
112	0xbe1510d4	-0.145572
113	0x3ec2f7c2	0.3807965
114	0xbe95ccde	-0.29257864
115	0xbe35823d	-0.17725463
116	0xbe3b6ec8	-0.18303978
117	0xbdf37963	-0.11888387
118	0xbed47288	-0.4149363
119	0xbeaa373e	-0.3324527
120	0xbee6fcf1	-0.45114854
121	0x3db60c37	0.088890485
122	0xbe378189	-0.17920507
123	0xbc005da5	-0.007834827
124	0xbefe76be	-0.49699968
125	0xbe86423e	-0.26222414
126	0xbe239d8f	-0.15978073
127	0x3f068822	0.5255147
128	0xbe9502ee	-0.29103798
129	0x3d1f195b	0.03884254
130	0x3e73bab9	0.23801698
131	0xbe50dd71	-0.20396973
132	0xbef19481	-0.47183612
133	0xbec3a067	-0.38208315
134	0xbeb39e62	-0.35081774
135	0x3ea78c7b	0.32724366
136	0x3dbda3f2	0.09259786
137	0x3da67feb	0.08129867
138	0xbe5e98e3	-0.21738009
139	0xbd0a847d	-0.033817757
140	0x3e992cf4	0.2991711
141	0x3e048954	0.12943012
142	0x3deacf8e	0.11465369
143	0xbe40d522	-0.18831304
144	0xbe0ba40e	-0.136368
145	0xbeb14171	-0.3462024
146	0x3e2851b3	0.16437416
147	0x3e2a1770	0.16610503
148	0xbeb540bb	-0.35400948
149	0xbd2d6449	-0.042331968
150	0xba1d3aa3	-0.0005997812
151	0xbed2f85c	-0.41205108
152	0x3eaf36c1	0.3422146
153	0x3e2879d4	0.16452724
154	0xbed5c433	-0.4175125
155	0xbceca21a	-0.02888589
156	0x3dff7be5	0.12474803
157	0x3d7c1b2f	0.06154936
158	0xbeba49e5	-0.36384502
159	0x3e8be4b2	0.27322918
160	0x3e88dd3b	0.26731285
161	0x3edc4efb	0.43029007
162	0x3ec82575	0.39091077
163	0x3d0be1de	0.03415095
164	0x3e96d041	0.2945576
165	0x3e4a7aef	0.19773458
166	0x3e1ef4b4	0.15523034
167	0xbea93093	-0.33044872
168	0x3e9ca3d9	0.30593756
169	0xbeefe787	-0.4685633
170	0x3ed586cd	0.41704407

fc3.bias f4 [9]
0	0xbcee55e4	-0.02909369
1	0xbbd2654a	-0.006420766
2	0x3d310377	0.043216195
3	0x3ba7a048	0.0051155426
4	0x3c5f5f7c	0.013633605
5	0x3c24b295	0.010052343
6	0xbc93a841	-0.018024566
7	0x3cb0fc92	0.02160481
8	0xbc03024b	-0.007996152
