cores/Autoencoder.pt (torch, 18312 bytes, 6 tensors)

fc1.weight f4 [39, 77]
00000000: f07f 983d 4644 e8bd a5c6 18be 3615 3c3e
00000010: 53cc 4a3d 974f b83a d6cb 3fbe 8814 16be
00000020: 0df7 ac3d 131c 10be 3b45 153d 3b30 f53c
00000030: 9cd7 f13d fc93 41be 918f 7bbd 37f7 51be
00000040: c4ab 4d3e 0f71 543e 541d 40be c6ed 8d3b
00000050: 41f2 3d3e 60e7 7cb9 9150 243e 8a8d 3fbe
00000060: f592 d6bd 4f8a 2abe 7ebb 39be 2a32 2b3d
00000070: 692a 3abe ad1d a73d 7c93 51be 805f 1e3c
00000080: 6855 863d e498 4b3e 12df eb3d d72b fdbd
00000090: 9650 cfbd e635 f0bd 66ca cdb9 bc3e 15be
000000a0: e5ec 213d ff1a 3c3d c9b6 91bd 70e7 23be
000000b0: cd30 b13c 6b49 4cbe 2cfd 8e3d 9af2 213a
000000c0: e2eb 303e c0a1 3bbd cb05 663e 1980 96bd
000000d0: a557 d43d 7792 383e 7435 01be a8b1 3fbe
000000e0: 12de e4bd 8804 333e aca3 3abe bc60 223e
000000f0: aaae 31be c855 2ebe 7c81 163e 3287 35be
00000100: 18cd 0c3e 0e87 36be 27b0 403e c2ae 33be
00000110: 7721 3b3e 4e61 5b3e 0291 2c3e 05fd 16bb
00000120: 3312 e33d c714 09be d5b2 c0bd 5a59 3ebc
00000130: 8cac 113e 31bc 9c3c 8ad7 bcbc d4a9 17be
00000140: a447 2d3e c31d 53bd a4e4 643e 43bc 213e
00000150: 721f 81bd 0460 273e 66d3 37bd a46c 27be
00000160: dae9 38be 096b dfbd bdd4 a3bc 0d71 39be
00000170: d13c b5bd 6009 373d 6f1f b03d cd18 97bd
00000180: f72c 263e 8843 2ebe ce7f 41be ff3b 7ebd
00000190: c3a6 b8bd 477f c8bd f854 9e3d 636e 533e
000001a0: fa9a 85bb bccc 9bbd 4e3a 80bd b8ce 403d
000001b0: 30a6 213d ec8a 2bbd 2296 39be c968 a13c
000001c0: 642d 50be 9a8d 42be 4c6a cb3d 2c18 3ebe
000001d0: be19 ff3d c432 1ebe 2b7d 15bd f11a b63d
000001e0: 55f6 39bc 9a26 aa3d 42a7 1fbe 91db dcbd
000001f0: 6b73 873b ff20 ad3b 20db 433e a168 68bd
00000200: 719b c63d 0ab1 343e 009e 09be 922a bdbd
00000210: 4c5b 5ebe 4872 8f3c 914b 62be f08c 3dbe
00000220: a4df c0bd 8261 60be b984 7f3d de43 9d3d
00000230: 7410 583e 5cea 573e 3995 debd 75c5 cebd
00000240: a692 5fbc 23f8 3f3d 9d4e fdbd 1302 c4bd
00000250: 0d1d 8cbd 0c15 4ebd 6ca0 013e e570 213e
00000260: 8ddd 013e 3947 f83d 3b8d 31be f1e2 0ebd
00000270: 434f fabd 3c8f 5f3e e659 45bd a038 223e
00000280: 89c7 0c3d aeea 453d 9a79 253d d1aa 163d
00000290: 79b7 203e d08b 973d ca19 90bd a77a 5a3e
000002a0: b8cf ed3d 4758 9dbc 2405 743d 9367 01be
000002b0: f476 023d 330d 61be 44dc 913d d11d a3bd
000002c0: e8a3 3a3e f606 3bbe f889 57be e91d 2b3e
000002d0: e5fe 2d3e e657 513e cfab 9f3b d976 2cbe
000002e0: 7ded 36be 3c1d f03d d8e3 233e 702f 753d
000002f0: 5e23 163e dda2 ec3d 6093 85bd 2bf2 1cbe
00000300: 0acc fabd 8e17 553e ff98 b73c 60cc b5b9
00000310: 2739 153d 0c58 a03d d8c9 6e3e f02c dd3d
00000320: 71ae bc3b 1cf0 723d d3e4 09be 24fb ad3d
00000330: ac95 293e efba c03c e985 e9bc 6f93 2dbe
00000340: f03e 393e 174b 38be f89c 23bd 161c 3e3e
00000350: a0b9 b93c f840 cdbd 2c00 843d e88a 983d
00000360: 3893 44be 79dd 27be 0f7a 853c fa11 9ebd
00000370: 8846 423d d4fa 433e d227 4dbe 3371 163d
00000380: 1b61 cbba e785 753c 05ff 3ebe 6abc 1b3e
00000390: 8431 61be 7538 e6bd cb33 373e c79d c7bd
000003a0: e751 5fbe 5274 7cbd e3c5 9e3d 9020 a93d
000003b0: cee6 3ebd 7df8 cabd 87a9 263e 7a17 543e
000003c0: 1b8d 963d dd3d c53d 3665 d53c 1333 4abe
000003d0: 61ee 86bd 7ec8 0abe 22a5 0abd 7445 adbd
000003e0: 9129 6a3e bed5 70bd 55fa 993d 4097 f8bd
000003f0: 9faa 2d3e 2788 fb3d 8ef6 c23d 34eb 70bd
0.07446277 -0.11341147 -0.14919527 0.18367466 0.049511265 0.0014061806 -0.18730101 -0.1465627
0.08445559 -0.1407321 0.036442976 0.029930225 0.11808702 -0.18904108 -0.061416212 -0.20504461
0.20085055 0.20746253 -0.18761188 0.0043313233 0.18549444 -0.00024118787 0.16046359 -0.18706337
-0.104772486 -0.16654323 -0.18137929 0.041795887 -0.1818024 0.08159957 -0.20466417 0.009666324
0.06559259 0.19882542 0.11517157 -0.123618774 -0.101227924 -0.1172903 -0.00039251446 -0.14574713
0.03953256 0.045924183 -0.071149416 -0.16006255 0.021629715 -0.19949882 0.069818825 0.0006177813
0.17277482 -0.045808554 0.22463147 -0.073486514 0.10368279 0.18024622 -0.12618047 -0.18720114
-0.11175169 0.17482197 -0.18226498 0.15857214 -0.17351785 -0.1702491 0.14697832 -0.17727354
0.13750112 -0.17824957 0.18817197 -0.17547134 0.18274485 0.21423838 0.16852191 -0.0023038995
0.110874556 -0.13386832 -0.094091095 -0.011617983 0.14225978 0.019132705 -0.023051996 -0.14810878
0.1692186 -0.051542055 0.22352844 0.15794472 -0.06304826 0.16345221 -0.04487934 -0.16350037
-0.18057957 -0.10909087 -0.019998902 -0.18109532 -0.088494904 0.044686675 0.085997455 -0.07377777
0.1622809 -0.17017949 -0.1889641 -0.062068935 -0.09016182 -0.09789901 0.0773105 0.20647578
-0.0040773125 -0.07607409 -0.06261121 0.047072142 0.03946513 -0.041880533 -0.18123677 0.019703286
-0.20329815 -0.18999329 0.09932384 -0.18563908 0.12456082 -0.15449053 -0.036496323 0.088918574
-0.011350234 0.08308144 -0.15591148 -0.107840665 0.004133632 0.0052834745 0.19126558 -0.056740407
0.09697617 0.1764566 -0.13439178 -0.09236635 -0.21714514 0.017510548 -0.22099139 -0.18510795
-0.09417656 -0.21912196 0.062382434 0.0767896 0.21100026 0.21085495 -0.10868306 -0.10096256
-0.013645804 0.0468675 -0.1236851 -0.09570708 -0.068414785 -0.05031304 0.12658852 0.15765722
0.12682171 0.1212296 -0.17339031 -0.034884397 -0.12222149 0.21831983 -0.048181437 0.15841913
0.03436998 0.04831951 0.04039917 0.036783997 0.1569499 0.07399714 -0.07036169 0.2133585
0.11611885 -0.019207133 0.059575215 -0.12637167 0.031851724 -0.21977691 0.071220905 -0.079646714
0.18226588 -0.18264374 -0.21048725 0.16710629 0.16991766 0.20443687 0.004872776 -0.16842212
-0.17864032 0.11724326 0.16004884 0.059859693 0.14661929 0.11554501 -0.0652225 -0.15326755
-0.122459486 0.20809767 0.022411821 -0.00034675281 0.036431458 0.078292936 0.23319185 0.10799587
0.0057580997 0.059311017 -0.13466196 0.08495167 0.16561002 0.023526637 -0.028506236 -0.16950773
0.18090415 -0.17997395 -0.03994462 0.18565401 0.02267152 -0.100221574 0.06445345 0.07448369
-0.19196784 -0.16393079 0.016293554 -0.077182725 0.047430545 0.19138652 -0.20034721 0.03672905
-0.0015516611 0.014985538 -0.1865197 0.15208593 -0.21991545 -0.11241237 0.17890851 -0.097468905
-0.21808587 -0.06163437 0.07752588 0.08258164 -0.04660683 -0.09910677 0.16275607 0.2071208
0.073511325 0.0963094 0.026049238 -0.19746046 -0.06588436 -0.13553044 -0.03384889 -0.08460513
0.22867419 -0.05879759 0.0751845 -0.12138224 0.16959618 0.122818284 0.09519683 -0.058818057

fc1.bias f4 [39]
00000000: 2d44 123c 4775 90bb 24f0 5fbb 0eb9 87ba
00000010: b6f2 a23c f41e 473b 3f68 84bc 0838 c43c
00000020: fba1 17bd bb95 7cb9 ab94 c13b b66c 963c
00000030: 027c a63c 6abb 1c3c 4086 d8bc b998 48bc
00000040: c8ea 08bc f732 4fbb 3dcb b8ba dbdd f1b8
00000050: 9f03 d6bb 8275 8bbc fdf0 bdbc 235c 393c
00000060: 1b48 8b3c 3e60 953c 27e9 a8b8 d33f 8c3c
00000070: 263d 0c3c 0e7b 04bd 8093 ba3c 50e4 6ebc
00000080: bf29 02bc 2ac8 923c 714f 953c f72e 1abc
00000090: 8a9a 5abb f72b eebc 97d5 99bb
0.008927387 -0.004408512 -0.0034170235 -0.0010354833 0.019891124 0.003038344 -0.01616299 0.023952499
-0.03701971 -0.00024088372 0.005907615 0.018362384 0.020322803 0.009566167 -0.026431203 -0.012243443
-0.008356757 -0.003161607 -0.0014098656 -0.00011533099 -0.0065311934 -0.017023806 -0.023186201 0.011313471
0.017002156 0.018234368 -8.054292e-05 0.017120278 0.008559501 -0.032343917 0.022775412 -0.014580801
-0.007944523 0.017917711 0.018226357 -0.009410611 -0.0033356273 -0.029073698 -0.0046946513

fc2.weight f4 [19, 39]
00000000: cc64 d1bd fb0b db3d 239c e8bd 697c 333e
00000010: 23e3 9abe 56db e8bd a6c5 84be fad0 963d
00000020: 1b56 b83c 05d5 9bbd 327d 4fbe 1b23 9ebe
00000030: c762 923e ad22 383d c7ac 8d3e 1b0c 803c
00000040: e69f 863e 1c78 c8bd 4b19 2bbd c4bf 9d3e
00000050: 595f 99bd f45e 063d 4896 a23e 989e 4fbd
00000060: 7d38 9abe 6f39 6cbe dcaf a5be 4326 46be
00000070: 24e7 9ebd e5f7 223e 927e 833e 2bee f13b
00000080: 7eb0 603e a987 4cbe 7023 0cbe 06ca 7bbb
00000090: 61d2 b9bd 715e 413e e9b7 6cbe fa7b 873e
000000a0: 53bc 9c3d d306 92be b23c 42be 6d25 063e
000000b0: 21e5 db3d c9f4 d23d c23b 703e 69c5 72be
000000c0: f59e 633e 77ba 1b3d 538c 753e 024e 59be
000000d0: 6f01 013d 27ad 4dbd d1be 873e 5dc4 a0bc
000000e0: bca5 903e d77b 8d3e 9203 31be 1ffb 35be
000000f0: 3982 d3bb 0523 7abe 0fcc 913e 22fe e63d
00000100: 0899 20bd 1546 28be d9c1 b7bd 4fea 79be
00000110: 2398 28be 8fed 9bbe 53e7 9bbd dfa6 863e
00000120: 1d23 90be 2876 273e e355 9bbb 2040 273e
00000130: 6ce0 a1be c196 193e 3e7f c03d ee2c a1bd
00000140: a682 853d 1f93 a3be 9f57 683e d56b 56be
00000150: d204 c83c 36bd 9a3e b292 b0be 153f 9b3e
00000160: 63ba 233e dc96 c43b 9d81 a43d bad3 e33d
00000170: a594 733e c6b4 81bd d037 843c eb81 163e
00000180: 3c40 fcbd b5ae a2bd 2422 d3bd 52c9 8fbe
00000190: 4dd4 b03e 5c88 bcbb dd50 883d badd 983e
000001a0: dde1 943e 08ff 8b3e e60a b63c fa54 89be
000001b0: 12f0 b4be ed39 903e 564d 95be c7f4 5a3e
000001c0: f3c2 71be 206f d23d 1341 553d b236 7ebe
000001d0: 5bf7 34be 57ec 3d3e 8252 203d 4344 abbd
000001e0: 0364 103e 8d5d 3fbe 40ac a13d 5371 adbe
000001f0: 39f4 9abd 562b 1fbd 926b 0fbc c5df 45be
00000200: 0dcd 0bbd 41eb 383d 21e8 81bb 0fc3 a2bd
00000210: 1bfc 9d3e e3fe 7d3e 1f0a 073e 4832 11bd
00000220: e2a3 4c3e c60e 7ebe c34c 47be ae77 6ebe
00000230: 3722 3dbe 79b8 17bc 610f 97be 08b1 28be
00000240: f2a6 99be 390d 493e 745e 0dbe 8ecc 1a3d
00000250: 6ef2 0fbe 3b70 1d3e 07c0 5ebe 17d5 01be
00000260: 61da 65be 508f 1f3e 18f2 833e 005f 72be
00000270: bfa5 90be 49a1 593e c9b3 89bd 7106 0abe
00000280: e0c4 8dbd 3d6b 0dbe 8e6e 813e 898f c23c
00000290: b09a 8abd 8026 44bd 3ac8 6f3e eb93 0cbe
000002a0: 3d81 4dbe 3345 57be 858e 4e3e dcfd 813e
000002b0: 6844 973e 1ea3 eebd 80e2 173d c3ff 7abe
000002c0: fb29 8a3e 4947 bd3d a530 773e 03c0 71be
000002d0: 2b72 79be fd30 72be 978c ecbd 3b28 adbc
000002e0: dbec 6fbe cc49 7ebe 8396 a1be 2f5f 973e
000002f0: 7779 5bbd 8c2d 5a3d a514 04be 798f 0b3e
00000300: b79e 823e 2705 633e 1799 febc 8961 ab3d
00000310: b209 fdbd 93b4 123d 7873 97bd 6a56 2f3c
00000320: 20eb aabd 44c2 a23c 2e48 9abd 4649 36be
00000330: 0b07 87be 3227 8abe 515e 283e a9ac e23c
00000340: 15f6 82be 584b 0e3e 0589 f33d 2a45 8bbe
00000350: 860f babd 0b69 2abe 942f 0c3c 1004 b23d
00000360: 80d8 6a3e 66b9 5f3c 392c 3bbe 0d20 323e
00000370: 542b 733e 8231 a93d 7d11 9cbe fb91 013e
00000380: fb10 763e d397 19be 09af c33c 171a df3c
00000390: 5099 7d3d ef39 5f3b 098c de3b 3e17 2dbe
000003a0: 786a 133e 8e61 8a3e 39d8 6f3e 2f40 95be
000003b0: e4e5 4fbe 4a47 d0bd d400 d73d c2bd d03d
000003c0: 2679 943e 70c9 213e ae77 423e b8d0 f93d
000003d0: f706 10be 9859 65be 06b7 66be daa8 39be
000003e0: 4053 523e 9bbf 83bd 6749 04be 2a32 3bbe
000003f0: 3713 4abc dd3c a93e 6489 193e caf0 6dbe
-0.102243036 0.106956445 -0.11357906 0.17527927 -0.30251417 -0.1136996 -0.25932044 0.07364078
0.022501996 -0.076089896 -0.20262602 -0.30886158 0.28590986 0.044954944 0.2767088 0.015630772
0.26293868 -0.09788534 -0.041772168 0.30810368 -0.07488889 0.032805398 0.3175528 -0.050688356
-0.30121222 -0.23068784 -0.32360733 -0.19350533 -0.0775893 0.15914877 0.25682503 0.007383128
0.21942326 -0.19973625 -0.13685393 -0.0038419976 -0.0907333 0.18883683 -0.23117031 0.26461774
0.076531075 -0.2852083 -0.18968466 0.13100214 0.10737062 0.10300595 0.23460296 -0.23708118
0.22228606 0.038019624 0.2397931 -0.21221164 0.031495508 -0.05021396 0.2651277 -0.019624883
0.28251445 0.27633545 -0.17286518 -0.17771576 -0.0064547327 -0.24427421 0.28475997 0.11278941
-0.039208442 -0.16432984 -0.089725204 -0.24405788 -0.16464286 -0.3045468 -0.07612481 0.26299188
-0.2815179 0.16353667 -0.004740463 0.16333055 -0.31616533 0.14998914 0.093992695 -0.07869898
0.0651906 -0.31948182 0.22689675 -0.20939572 0.024416361 0.3022248 -0.3448692 0.30321565
0.1598907 0.005999429 0.08032534 0.11124368 0.23787172 -0.06333308 0.016139895 0.14697997
-0.12316939 -0.07943479 -0.10309246 -0.28083283 0.34536973 -0.00575356 0.066560484 0.29856664
0.2907857 0.2734301 0.022221994 -0.26822644 -0.3533941 0.28169194 -0.29160565 0.21382438
-0.23609523 0.10275102 0.052064013 -0.24825552 -0.17672484 0.18547188 0.039141186 -0.08362629
0.14100651 -0.1868803 0.07894182 -0.33875522 -0.07566113 -0.038859688 -0.008753674 -0.19323643
-0.0341311 0.04514623 -0.0039644395 -0.07947361 0.30856404 0.24804263 0.13187455 -0.035448343
0.19984391 -0.24810323 -0.19462876 -0.23287842 -0.18470083 -0.00926029 -0.2950392 -0.16473782
-0.30010182 0.1963395 -0.13805562 0.037792735 -0.14057323 0.15374844 -0.2175294 -0.12678944
-0.22446586 0.15582013 0.2577064 -0.23669052 -0.28251454 0.21252932 -0.067237444 -0.1347902
-0.069223166 -0.1381044 0.2527966 0.023750084 -0.067677855 -0.04788828 0.23416224 -0.13728301
-0.20068832 -0.21022491 0.20171554 0.25388992 0.29544377 -0.11652206 0.03708124 -0.24511628
0.26985154 0.09242112 0.2413965 -0.23608403 -0.24359958 -0.236515 -0.11550253 -0.021137347
-0.23430197 -0.24832839 -0.31560144 0.29564807 -0.053582635 0.053266093 -0.128985 0.13628949
0.25511715 0.22169934 -0.031078858 0.08368213 -0.12355365 0.03581674 -0.07395071 0.010701755
-0.08345628 0.019868024 -0.075332984 -0.17801389 -0.2637256 -0.2698303 0.16442229 0.027670221
-0.2557837 0.13895929 0.11891369 -0.27201205 -0.09084992 -0.16641633 0.008556265 0.08692181
0.2293415 0.013655042 -0.18278588 0.17395039 0.23746997 0.08261396 -0.30482092 0.12653343
0.24029915 -0.14999323 0.023887174 0.02723412 0.06191379 0.003406163 0.006791596 -0.16903397
0.14396083 0.27027553 0.23422326 -0.2915053 -0.2030254 -0.10169847 0.10498205 0.101924434
0.2899868 0.15799499 0.18990967 0.12198013 -0.14065157 -0.22397459 -0.22530755 -0.18130818
0.2053957 -0.0643303 -0.12918626 -0.18280855 -0.012333683 0.33054247 0.14993817 -0.23236385

fc2.bias f4 [19]
00000000: aa68 88bc 3b56 753b 0af9 9f3c 9f0c 8b3b
00000010: fd5f eebc 19a1 0dbc 8b9c 993b 43b3 173b
00000020: 962c 1dbb c68e 7e3b ee5c f43c 86ec a5bc
00000030: ffc9 2cbc 01e3 ed3c 0ca7 613b d288 a73c
00000040: 13ad 973c 07f3 afbb 890d 5e3a
-0.01665147 0.003743543 0.01952793 0.004243448 -0.029098505 -0.008644366 0.004687851 0.002314762
-0.0023982874 0.0038842424 0.029829469 -0.020254385 -0.0105462065 0.029038908 0.0034431843 0.020450983
0.018515145 -0.0053695473 0.0008470645

fc3.weight f4 [9, 19]
00000000: 2bd0 c1be 2397 93be dc59 4a3e 6f3e 303d
00000010: 0437 3a3a 9502 bfbe 2865 513e e4e1 16be
00000020: f0c6 ebbe a6a0 ccbe b1ff 503e 45e7 3c3e
00000030: 9a32 b23e 35f3 eebe d761 ac3d b3a0 c1be
00000040: b0df 3fbe 7ea5 d9be 1fbf 913d ecc4 993e
00000050: 5495 0d3e 10d0 c83e dd7e b5be 040e d7be
00000060: 4e8f c9be 7642 b2be 1509 edbd 7060 c1bd
00000070: 83ff ccbe dfb0 f9bd 9392 eabe 796d bdbe
00000080: 3f9d 733e a092 89bd 9cf1 9c3e 7f9f 72bd
00000090: 2b36 49be af36 ca3b d21e a5be 46ce b03e
000000a0: 2455 eb3d 0086 a23d 6d80 7fbc a620 cdbe
000000b0: 363f 83be 71ba b93c ef52 a3be d366 cbbe
000000c0: 161d 63be eb60 ac3e 5421 f33b 6ba1 1c3e
000000d0: 3810 4b3e 4778 e4be 732c a33e 4bd0 d7be
000000e0: 6639 143e bebc b53e bf54 923e 3007 653e
000000f0: 255e 81be 152a 283e 491b 433e 6b92 ee3e
00000100: 72e2 21be 6aba b33e dafb ab3d 4e9c 193d
00000110: 7ef9 e6be d75b 6cbe 2a81 cb3e 7556 893e
00000120: c820 243e fdb5 923e bb15 74bc 4581 b6bd
00000130: cfcc ffbe fb53 183e d366 babe ffd5 fcbe
00000140: c9e3 87bb 60d5 33be f3fb 883d 49fa b03d
00000150: f2d1 2cbe b088 363e 40ff d83e f053 0ebe
00000160: f3c4 c1be 9d06 3c3e 403d 803e 2f6f 6c3e
00000170: 3636 0fbd 3b73 bdbd 94cf 363e c698 66be
00000180: 155f 773e acb7 9bbe c0b4 ccbe f5be 5ebd
00000190: b252 9bbc 3cb1 45bd d797 ccbe 0f87 d1be
000001a0: 5812 c1be 9c58 d4bd f6d5 be3b 0a31 1fbd
000001b0: 6559 abbe 335c 83bc b896 9fbe 4408 1d3e
000001c0: 5f06 ddbe 14e4 5dbe bdaa 983e 8430 9abd
000001d0: aab9 a4bd a643 4bbe daa9 6d3d 362c f03e
000001e0: 2963 f23e da14 17be 6ae7 943e dc33 e43d
000001f0: cd1c 19bb d53e 8d3d 0f8d 9e3e 7a0e ff3b
00000200: 00e9 31be 7a1d c83d afc4 8cbe 8b6c 7e3e
00000210: 11c5 6f3e 851b 8ebc ee71 863d 1b69 f7be
00000220: 41eb dd3e f9b7 acbe cc6f 3abe 7286 29be
00000230: 6646 6a3e 4002 83be 71c9 b73e 41c3 a23e
00000240: d951 dfbd e181 78be 80e1 bd3d 8fa2 4f3d
00000250: dd6b 87be 91cd aa3e 344c 49be 89e5 e13e
00000260: 38ca 5b3e 20fb d63c bf50 e1be 5568 febe
00000270: 88c0 87be 0d06 383e b0e2 7f3e 3f56 883e
00000280: 1109 d93e 4801 dfb9 69c7 e93e 4c51 cd3e
00000290: 60c5 323e f847 c53e 9d32 463d 5a4b 51be
000002a0: ed0f af3e fa3c afbe 6818 c7bd
-0.37854132 -0.28826246 0.19760841 0.04302829 0.0007103535 -0.37306657 0.20448744 -0.14734608
-0.46050215 -0.39966315 0.20410039 0.18447597 0.3480423 -0.46669927 0.08417099 -0.37817916
-0.18737674 -0.42509073 0.071165316 0.30033052 0.13826495 0.3922124 -0.35448352 -0.4200288
-0.39367145 -0.3481633 -0.11573998 -0.09442222 -0.4003869 -0.121919386 -0.45814952 -0.36997584
0.23790453 -0.067174196 0.30653083 -0.05923414 -0.1964957 0.0061710696 -0.32250077 0.34532374
0.11490849 0.07935715 -0.015594584 -0.4006397 -0.25634164 0.02267191 -0.3189921 -0.39726886
-0.22179064 0.33667693 0.0074197445 0.15295951 0.19830406 -0.44623014 0.3186985 -0.42151102
0.14475021 0.3549556 0.2858028 0.22366023 -0.2526714 0.16422303 0.19053377 0.46596083
-0.15809038 0.3510316 0.08397646 0.03750258 -0.45112222 -0.23081909 0.39746982 0.26823774
0.1602813 0.2865447 -0.014897759 -0.08911375 -0.49960944 0.14875786 -0.36406574 -0.49382016
-0.004147027 -0.17561865 0.066886805 0.08641488 -0.16876963 0.1782558 0.4238224 -0.13899207
-0.37845573 0.18361898 0.2504673 0.23089288 -0.03496381 -0.09250494 0.17852622 -0.22519216
0.24157365 -0.30413568 -0.3998165 -0.05438133 -0.01896033 -0.048264727 -0.39959595 -0.40923354
-0.37709308 -0.103684634 0.005823846 -0.038865127 -0.3346664 -0.016035175 -0.31169677 0.15335184
-0.43168923 -0.21669036 0.29817763 -0.07528785 -0.08043225 -0.19850025 0.05802331 0.4690873
0.47341278 -0.14754048 0.29082805 0.11142704 -0.0023363114 0.0689675 0.30966994 0.007783708
-0.17374039 0.09771247 -0.27493808 0.24846093 0.23415019 -0.017347107 0.06564699 -0.48322377
0.43343547 -0.3373411 -0.1820671 -0.16555193 0.22878417 -0.25587654 0.35895875 0.31789592
-0.10904283 -0.24268295 0.09271526 0.050692137 -0.2644948 0.3335996 -0.19657975 0.44120434
0.21463859 0.026242793 -0.44006917 -0.49688974 -0.26514077 0.17971058 0.24988818 0.266283
0.4238973 -0.0004253483 0.4565995 0.40101087 0.17458105 0.3853147 0.048388112 -0.204389
0.34191838 -0.3422621 -0.09721452

fc3.bias f4 [9]
00000000: 6bf5 66bc f486 85bc 6da6 a43c 0207 9e3b
00000010: d579 df3b fa3e 90bc 5bf4 c1bc 8716 d63b
00000020: 1bb9 c33c
-0.014096598 -0.016299702 0.02009889 0.0048226127 0.0068199434 -0.017608155 -0.023676088 0.006533447
0.023891976
